###############################################################################
# Copyright (c) Intel Corporation - All rights reserved.                      #
# This file is part of the LIBXSMM library.                                   #
#                                                                             #
# For information on the license, see the LICENSE file.                       #
# Further information: https://github.com/libxsmm/libxsmm/                    #
# SPDX-License-Identifier: BSD-3-Clause                                       #
###############################################################################
# Sasikanth Avancha, Dhiraj Kalamkar, Alexander Heinecke (Intel Corp.)
###############################################################################

name: "Inception_v3"
node {
  name: "data"
  type: "LMDBData"
  top: "data"
  top: "label"
  propagate_down: false
  mode: TRAIN
  data_param {
    train_source: "/scratch/imagenet/lmdb_320_resize_compressed/ilsvrc12_train_lmdb"
    test_source: "/scratch/imagenet/lmdb_320_resize_compressed/ilsvrc12_val_lmdb"
    split_db: false
    batch_size: 56
    num_train_files: 1281167
    num_test_files: 50000
    lookahead: 2
    engine: LOOP

    image_xform_param {
      orig_size: 320
      mirror: true
      crop_image: true
      crop_size: 299
      mean_values: 104
      mean_values: 117
      mean_values: 123
      scale_values: 0.01615589
      test_views: 1
    }
  }
}
node {
  name: "conv1"
  type: "Convolution"
  bottom: "data"
  top: "conv1"
  propagate_down: false
  param {
    lr_mult: 1.0
    decay_mult: 1.0
  }
  convolution_param {
    engine: XSMM
    num_output: 32
    kernel_size: 3
    stride: 2
    weight_filler {
      type: "XAVIER"
    }
    bias_term: false
    #bwd_relu: false
  }
}
node {
  name: "conv1/bn"
  type: "FusedBatchNorm"
  bottom: "conv1"
  top: "conv1/bn"
  param {
    lr_mult: 1.0
    decay_mult: 1.0
  }
  fused_bnorm_param {
    engine: XSMM
    mmf: 0.9
    eps: 0.0001
    #bwd_relu: false
    #scale_bias: true
  }
}
node {
  name: "conv2"
  type: "Convolution"
  bottom: "conv1/bn"
  top: "conv2"
  param {
    lr_mult: 1.0
    decay_mult: 1.0
  }
  convolution_param {
    engine: XSMM
    num_output: 32
    kernel_size: 3
    weight_filler {
      type: "XAVIER"
    }
    bias_term: false
    #bwd_relu: true
  }
}
node {
  name: "conv2/bn"
  type: "FusedBatchNorm"
  bottom: "conv2"
  top: "conv2/bn"
  param {
    lr_mult: 1.0
    decay_mult: 1.0
  }
  fused_bnorm_param {
    engine: XSMM
    pad: 1
    mmf: 0.9
    eps: 0.0001
    #bwd_relu: false
    #scale_bias: true
  }
}
node {
  name: "conv3"
  type: "Convolution"
  bottom: "conv2/bn"
  top: "conv3"
  param {
    lr_mult: 1.0
    decay_mult: 1.0
  }
  convolution_param {
    engine: XSMM
    num_output: 64
    kernel_size: 3
    pad: 1
    opad: 1
    physical_padding: true
    weight_filler {
      type: "XAVIER"
    }
    bias_term: false
    #bwd_relu: true
  }
}
node {
  name: "conv3/bn"
  type: "FusedBatchNorm"
  bottom: "conv3"
  top: "conv3/bn"
  param {
    lr_mult: 1.0
    decay_mult: 1.0
  }
  fused_bnorm_param {
    engine: XSMM
    ipad: 1
    pad: 0
    mmf: 0.9
    eps: 0.0001
    #bwd_relu: false
    #scale_bias: true
  }
}
node {
  name: "pool1"
  type: "Pooling"
  bottom: "conv3/bn"
  top: "pool1"
  pooling_param {
    engine: XSMM
    pool: MAX
    kernel_size: 3
    stride: 2
  }
}
node {
  name: "conv4"
  type: "Convolution"
  bottom: "pool1"
  top: "conv4"
  param {
    lr_mult: 1.0
    decay_mult: 1.0
  }
  convolution_param {
    engine: XSMM
    num_output: 80
    kernel_size: 3
    weight_filler {
      type: "XAVIER"
    }
    bias_term: false
    #bwd_relu: true
  }
}
node {
  name: "conv4/bn"
  type: "FusedBatchNorm"
  bottom: "conv4"
  top: "conv4/bn"
  param {
    lr_mult: 1.0
    decay_mult: 1.0
  }
  fused_bnorm_param {
    engine: XSMM
    mmf: 0.9
    eps: 0.0001
    #bwd_relu: false
    #scale_bias: true
  }
}
node {
  name: "conv5"
  type: "Convolution"
  bottom: "conv4/bn"
  top: "conv5"
  param {
    lr_mult: 1.0
    decay_mult: 1.0
  }
  convolution_param {
    engine: XSMM
    num_output: 192
    kernel_size: 3
    stride: 2
    weight_filler {
      type: "XAVIER"
    }
    bias_term: false
    #bwd_relu: true
  }
}
node {
  name: "conv5/bn"
  type: "FusedBatchNorm"
  bottom: "conv5"
  top: "conv5/bn"
  param {
    lr_mult: 1.0
    decay_mult: 1.0
  }
  fused_bnorm_param {
    engine: XSMM
    pad: 1
    mmf: 0.9
    eps: 0.0001
    #bwd_relu: false
    #scale_bias: true
  }
}
node {
  name: "conv6"
  type: "Convolution"
  bottom: "conv5/bn"
  top: "conv6"
  param {
    lr_mult: 1.0
    decay_mult: 1.0
  }
  convolution_param {
    engine: XSMM
    num_output: 288
    kernel_size: 3
    pad: 1
    opad: 1
    physical_padding: true
    weight_filler {
      type: "XAVIER"
    }
    bias_term: false
    #bwd_relu: true
  }
}
node {
  name: "conv6/bn"
  type: "FusedBatchNorm"
  bottom: "conv6"
  top: "conv6/bn"
  param {
    lr_mult: 1.0
    decay_mult: 1.0
  }
  fused_bnorm_param {
    engine: XSMM
    ipad: 1
    pad: 0
    mmf: 0.9
    eps: 0.0001
    #bwd_relu: false
    #scale_bias: true
  }
}
node {
  name: "3A/p1_1x1"
  type: "Convolution"
  bottom: "conv6/bn"
  top: "3A/p1_1x1"
  param {
    lr_mult: 1.0
    decay_mult: 1.0
  }
  convolution_param {
    engine: XSMM
    num_output: 64
    kernel_size: 1
    weight_filler {
      type: "XAVIER"
    }
    bias_term: false
    #bwd_relu: true
  }
}
node {
  name: "3A/p1_1x1/bn"
  type: "FusedBatchNorm"
  bottom: "3A/p1_1x1"
  top: "3A/p1_1x1/bn"
  param {
    lr_mult: 1.0
    decay_mult: 1.0
  }
  fused_bnorm_param {
    engine: XSMM
    mmf: 0.9
    eps: 0.0001
    #bwd_relu: false
    #scale_bias: true
  }
}
node {
  name: "3A/p2_1x1"
  type: "Convolution"
  bottom: "conv6/bn"
  top: "3A/p2_1x1"
  param {
    lr_mult: 1.0
    decay_mult: 1.0
  }
  convolution_param {
    engine: XSMM
    num_output: 64
    kernel_size: 1
    weight_filler {
      type: "XAVIER"
    }
    bias_term: false
    #bwd_relu: true
  }
}
node {
  name: "3A/p2_1x1/bn"
  type: "FusedBatchNorm"
  bottom: "3A/p2_1x1"
  top: "3A/p2_1x1/bn"
  param {
    lr_mult: 1.0
    decay_mult: 1.0
  }
  fused_bnorm_param {
    engine: XSMM
    pad: 1
    mmf: 0.9
    eps: 0.0001
    #bwd_relu: false
    #scale_bias: true
  }
}
node {
  name: "3A/p2_3x3"
  type: "Convolution"
  bottom: "3A/p2_1x1/bn"
  top: "3A/p2_3x3"
  param {
    lr_mult: 1.0
    decay_mult: 1.0
  }
  convolution_param {
    engine: XSMM
    num_output: 96
    kernel_size: 3
    pad: 1
    opad: 1
    physical_padding: true
    weight_filler {
      type: "XAVIER"
    }
    bias_term: false
    #bwd_relu: true
  }
}
node {
  name: "3A/p2_3x3/bn"
  type: "FusedBatchNorm"
  bottom: "3A/p2_3x3"
  top: "3A/p2_3x3/bn"
  param {
    lr_mult: 1.0
    decay_mult: 1.0
  }
  fused_bnorm_param {
    engine: XSMM
    ipad: 1
    pad: 0
    mmf: 0.9
    eps: 0.0001
    #bwd_relu: false
    #scale_bias: true
  }
}
node {
  name: "3A/p3_1x1"
  type: "Convolution"
  bottom: "conv6/bn"
  top: "3A/p3_1x1"
  param {
    lr_mult: 1.0
    decay_mult: 1.0
  }
  convolution_param {
    engine: XSMM
    num_output: 48
    kernel_size: 1
    weight_filler {
      type: "XAVIER"
    }
    bias_term: false
    #bwd_relu: true
  }
}
node {
  name: "3A/p3_1x1/bn"
  type: "FusedBatchNorm"
  bottom: "3A/p3_1x1"
  top: "3A/p3_1x1/bn"
  param {
    lr_mult: 1.0
    decay_mult: 1.0
  }
  fused_bnorm_param {
    engine: XSMM
    pad: 1
    mmf: 0.9
    eps: 0.0001
    #bwd_relu: false
    #scale_bias: true
  }
}
node {
  name: "3A/p3_3x3a"
  type: "Convolution"
  bottom: "3A/p3_1x1/bn"
  top: "3A/p3_3x3a"
  param {
    lr_mult: 1.0
    decay_mult: 1.0
  }
  convolution_param {
    engine: XSMM
    num_output: 64
    kernel_size: 3
    pad: 1
    opad: 1
    physical_padding: true
    weight_filler {
      type: "XAVIER"
    }
    bias_term: false
    #bwd_relu: true
  }
}
node {
  name: "3A/p3_3x3a/bn"
  type: "FusedBatchNorm"
  bottom: "3A/p3_3x3a"
  top: "3A/p3_3x3a/bn"
  param {
    lr_mult: 1.0
    decay_mult: 1.0
  }
  fused_bnorm_param {
    engine: XSMM
    ipad: 1
    pad: 1
    mmf: 0.9
    eps: 0.0001
    #bwd_relu: false
    #scale_bias: true
  }
}
node {
  name: "3A/p3_3x3b"
  type: "Convolution"
  bottom: "3A/p3_3x3a/bn"
  top: "3A/p3_3x3b"
  param {
    lr_mult: 1.0
    decay_mult: 1.0
  }
  convolution_param {
    engine: XSMM
    num_output: 64
    kernel_size: 3
    pad: 1
    opad: 1
    physical_padding: true
    weight_filler {
      type: "XAVIER"
    }
    bias_term: false
    #bwd_relu: true
  }
}
node {
  name: "3A/p3_3x3b/bn"
  type: "FusedBatchNorm"
  bottom: "3A/p3_3x3b"
  top: "3A/p3_3x3b/bn"
  param {
    lr_mult: 1.0
    decay_mult: 1.0
  }
  fused_bnorm_param {
    engine: XSMM
    ipad: 1
    pad: 0
    mmf: 0.9
    eps: 0.0001
    #bwd_relu: false
    #scale_bias: true
  }
}
node {
  name: "3A/p4_pool"
  type: "Pooling"
  bottom: "conv6/bn"
  top: "3A/p4_pool"
  pooling_param {
    engine: XSMM
    pool: AVE
    kernel_size: 3
    pad: 1
  }
}
node {
  name: "3A/p4_1x1"
  type: "Convolution"
  bottom: "3A/p4_pool"
  top: "3A/p4_1x1"
  param {
    lr_mult: 1.0
    decay_mult: 1.0
  }
  convolution_param {
    engine: XSMM
    num_output: 64
    kernel_size: 1
    weight_filler {
      type: "XAVIER"
    }
    bias_term: false
    #bwd_relu: true
  }
}
node {
  name: "3A/p4_1x1/bn"
  type: "FusedBatchNorm"
  bottom: "3A/p4_1x1"
  top: "3A/p4_1x1/bn"
  param {
    lr_mult: 1.0
    decay_mult: 1.0
  }
  fused_bnorm_param {
    engine: XSMM
    mmf: 0.9
    eps: 0.0001
    #bwd_relu: false
    #scale_bias: true
  }
}
node {
  name: "3A/concat"
  type: "Concat"
  bottom: "3A/p1_1x1/bn"
  bottom: "3A/p2_3x3/bn"
  bottom: "3A/p3_3x3b/bn"
  bottom: "3A/p4_1x1/bn"
  top: "3A/concat"
  concat_param {
    engine: XSMM
  }
}
node {
  name: "3B/p1_1x1"
  type: "Convolution"
  bottom: "3A/concat"
  top: "3B/p1_1x1"
  param {
    lr_mult: 1.0
    decay_mult: 1.0
  }
  convolution_param {
    engine: XSMM
    num_output: 64
    kernel_size: 1
    weight_filler {
      type: "XAVIER"
    }
    bias_term: false
    #bwd_relu: true
  }
}
node {
  name: "3B/p1_1x1/bn"
  type: "FusedBatchNorm"
  bottom: "3B/p1_1x1"
  top: "3B/p1_1x1/bn"
  param {
    lr_mult: 1.0
    decay_mult: 1.0
  }
  fused_bnorm_param {
    engine: XSMM
    mmf: 0.9
    eps: 0.0001
    #bwd_relu: false
    #scale_bias: true
  }
}
node {
  name: "3B/p2_1x1"
  type: "Convolution"
  bottom: "3A/concat"
  top: "3B/p2_1x1"
  param {
    lr_mult: 1.0
    decay_mult: 1.0
  }
  convolution_param {
    engine: XSMM
    num_output: 64
    kernel_size: 1
    weight_filler {
      type: "XAVIER"
    }
    bias_term: false
    #bwd_relu: true
  }
}
node {
  name: "3B/p2_1x1/bn"
  type: "FusedBatchNorm"
  bottom: "3B/p2_1x1"
  top: "3B/p2_1x1/bn"
  param {
    lr_mult: 1.0
    decay_mult: 1.0
  }
  fused_bnorm_param {
    engine: XSMM
    pad: 1
    mmf: 0.9
    eps: 0.0001
    #bwd_relu: false
    #scale_bias: true
  }
}
node {
  name: "3B/p2_3x3"
  type: "Convolution"
  bottom: "3B/p2_1x1/bn"
  top: "3B/p2_3x3"
  param {
    lr_mult: 1.0
    decay_mult: 1.0
  }
  convolution_param {
    engine: XSMM
    num_output: 96
    kernel_size: 3
    pad: 1
    opad: 1
    physical_padding: true
    weight_filler {
      type: "XAVIER"
    }
    bias_term: false
    #bwd_relu: true
  }
}
node {
  name: "3B/p2_3x3/bn"
  type: "FusedBatchNorm"
  bottom: "3B/p2_3x3"
  top: "3B/p2_3x3/bn"
  param {
    lr_mult: 1.0
    decay_mult: 1.0
  }
  fused_bnorm_param {
    engine: XSMM
    ipad: 1
    pad: 0
    mmf: 0.9
    eps: 0.0001
    #bwd_relu: false
    #scale_bias: true
  }
}
node {
  name: "3B/p3_1x1"
  type: "Convolution"
  bottom: "3A/concat"
  top: "3B/p3_1x1"
  param {
    lr_mult: 1.0
    decay_mult: 1.0
  }
  convolution_param {
    engine: XSMM
    num_output: 48
    kernel_size: 1
    weight_filler {
      type: "XAVIER"
    }
    bias_term: false
    #bwd_relu: true
  }
}
node {
  name: "3B/p3_1x1/bn"
  type: "FusedBatchNorm"
  bottom: "3B/p3_1x1"
  top: "3B/p3_1x1/bn"
  param {
    lr_mult: 1.0
    decay_mult: 1.0
  }
  fused_bnorm_param {
    engine: XSMM
    pad: 1
    mmf: 0.9
    eps: 0.0001
    #bwd_relu: false
    #scale_bias: true
  }
}
node {
  name: "3B/p3_3x3a"
  type: "Convolution"
  bottom: "3B/p3_1x1/bn"
  top: "3B/p3_3x3a"
  param {
    lr_mult: 1.0
    decay_mult: 1.0
  }
  convolution_param {
    engine: XSMM
    num_output: 64
    kernel_size: 3
    pad: 1
    opad: 1
    physical_padding: true
    weight_filler {
      type: "XAVIER"
    }
    bias_term: false
    #bwd_relu: true
  }
}
node {
  name: "3B/p3_3x3a/bn"
  type: "FusedBatchNorm"
  bottom: "3B/p3_3x3a"
  top: "3B/p3_3x3a/bn"
  param {
    lr_mult: 1.0
    decay_mult: 1.0
  }
  fused_bnorm_param {
    engine: XSMM
    ipad: 1
    pad: 1
    mmf: 0.9
    eps: 0.0001
    #bwd_relu: false
    #scale_bias: true
  }
}
node {
  name: "3B/p3_3x3b"
  type: "Convolution"
  bottom: "3B/p3_3x3a/bn"
  top: "3B/p3_3x3b"
  param {
    lr_mult: 1.0
    decay_mult: 1.0
  }
  convolution_param {
    engine: XSMM
    num_output: 64
    kernel_size: 3
    pad: 1
    opad: 1
    physical_padding: true
    weight_filler {
      type: "XAVIER"
    }
    bias_term: false
    #bwd_relu: true
  }
}
node {
  name: "3B/p3_3x3b/bn"
  type: "FusedBatchNorm"
  bottom: "3B/p3_3x3b"
  top: "3B/p3_3x3b/bn"
  param {
    lr_mult: 1.0
    decay_mult: 1.0
  }
  fused_bnorm_param {
    engine: XSMM
    ipad: 1
    pad: 0
    mmf: 0.9
    eps: 0.0001
    #bwd_relu: false
    #scale_bias: true
  }
}
node {
  name: "3B/p4_pool"
  type: "Pooling"
  bottom: "3A/concat"
  top: "3B/p4_pool"
  pooling_param {
    engine: XSMM
    pool: AVE
    kernel_size: 3
    pad: 1
  }
}
node {
  name: "3B/p4_1x1"
  type: "Convolution"
  bottom: "3B/p4_pool"
  top: "3B/p4_1x1"
  param {
    lr_mult: 1.0
    decay_mult: 1.0
  }
  convolution_param {
    engine: XSMM
    num_output: 64
    kernel_size: 1
    weight_filler {
      type: "XAVIER"
    }
    bias_term: false
    #bwd_relu: true
  }
}
node {
  name: "3B/p4_1x1/bn"
  type: "FusedBatchNorm"
  bottom: "3B/p4_1x1"
  top: "3B/p4_1x1/bn"
  param {
    lr_mult: 1.0
    decay_mult: 1.0
  }
  fused_bnorm_param {
    engine: XSMM
    mmf: 0.9
    eps: 0.0001
    #bwd_relu: false
    #scale_bias: true
  }
}
node {
  name: "3B/concat"
  type: "Concat"
  bottom: "3B/p1_1x1/bn"
  bottom: "3B/p2_3x3/bn"
  bottom: "3B/p3_3x3b/bn"
  bottom: "3B/p4_1x1/bn"
  top: "3B/concat"
  concat_param {
    engine: XSMM
  }
}
node {
  name: "3C/p1_1x1"
  type: "Convolution"
  bottom: "3B/concat"
  top: "3C/p1_1x1"
  param {
    lr_mult: 1.0
    decay_mult: 1.0
  }
  convolution_param {
    engine: XSMM
    num_output: 64
    kernel_size: 1
    weight_filler {
      type: "XAVIER"
    }
    bias_term: false
    #bwd_relu: true
  }
}
node {
  name: "3C/p1_1x1/bn"
  type: "FusedBatchNorm"
  bottom: "3C/p1_1x1"
  top: "3C/p1_1x1/bn"
  param {
    lr_mult: 1.0
    decay_mult: 1.0
  }
  fused_bnorm_param {
    engine: XSMM
    mmf: 0.9
    eps: 0.0001
    #bwd_relu: false
    #scale_bias: true
  }
}
node {
  name: "3C/p2_1x1"
  type: "Convolution"
  bottom: "3B/concat"
  top: "3C/p2_1x1"
  param {
    lr_mult: 1.0
    decay_mult: 1.0
  }
  convolution_param {
    engine: XSMM
    num_output: 64
    kernel_size: 1
    weight_filler {
      type: "XAVIER"
    }
    bias_term: false
    #bwd_relu: true
  }
}
node {
  name: "3C/p2_1x1/bn"
  type: "FusedBatchNorm"
  bottom: "3C/p2_1x1"
  top: "3C/p2_1x1/bn"
  param {
    lr_mult: 1.0
    decay_mult: 1.0
  }
  fused_bnorm_param {
    engine: XSMM
    pad: 1
    mmf: 0.9
    eps: 0.0001
    #bwd_relu: false
    #scale_bias: true
  }
}
node {
  name: "3C/p2_3x3"
  type: "Convolution"
  bottom: "3C/p2_1x1/bn"
  top: "3C/p2_3x3"
  param {
    lr_mult: 1.0
    decay_mult: 1.0
  }
  convolution_param {
    engine: XSMM
    num_output: 96
    kernel_size: 3
    pad: 1
    opad: 1
    physical_padding: true
    weight_filler {
      type: "XAVIER"
    }
    bias_term: false
    #bwd_relu: true
  }
}
node {
  name: "3C/p2_3x3/bn"
  type: "FusedBatchNorm"
  bottom: "3C/p2_3x3"
  top: "3C/p2_3x3/bn"
  param {
    lr_mult: 1.0
    decay_mult: 1.0
  }
  fused_bnorm_param {
    engine: XSMM
    ipad: 1
    pad: 0
    mmf: 0.9
    eps: 0.0001
    #bwd_relu: false
    #scale_bias: true
  }
}
node {
  name: "3C/p3_1x1"
  type: "Convolution"
  bottom: "3B/concat"
  top: "3C/p3_1x1"
  param {
    lr_mult: 1.0
    decay_mult: 1.0
  }
  convolution_param {
    engine: XSMM
    num_output: 48
    kernel_size: 1
    weight_filler {
      type: "XAVIER"
    }
    bias_term: false
    #bwd_relu: true
  }
}
node {
  name: "3C/p3_1x1/bn"
  type: "FusedBatchNorm"
  bottom: "3C/p3_1x1"
  top: "3C/p3_1x1/bn"
  param {
    lr_mult: 1.0
    decay_mult: 1.0
  }
  fused_bnorm_param {
    engine: XSMM
    pad: 1
    mmf: 0.9
    eps: 0.0001
    #bwd_relu: false
    #scale_bias: true
  }
}
node {
  name: "3C/p3_3x3a"
  type: "Convolution"
  bottom: "3C/p3_1x1/bn"
  top: "3C/p3_3x3a"
  param {
    lr_mult: 1.0
    decay_mult: 1.0
  }
  convolution_param {
    engine: XSMM
    num_output: 64
    kernel_size: 3
    pad: 1
    opad: 1
    physical_padding: true
    weight_filler {
      type: "XAVIER"
    }
    bias_term: false
    #bwd_relu: true
  }
}
node {
  name: "3C/p3_3x3a/bn"
  type: "FusedBatchNorm"
  bottom: "3C/p3_3x3a"
  top: "3C/p3_3x3a/bn"
  param {
    lr_mult: 1.0
    decay_mult: 1.0
  }
  fused_bnorm_param {
    engine: XSMM
    ipad: 1
    pad: 1
    mmf: 0.9
    eps: 0.0001
    #bwd_relu: false
    #scale_bias: true
  }
}
node {
  name: "3C/p3_3x3b"
  type: "Convolution"
  bottom: "3C/p3_3x3a/bn"
  top: "3C/p3_3x3b"
  param {
    lr_mult: 1.0
    decay_mult: 1.0
  }
  convolution_param {
    engine: XSMM
    num_output: 64
    kernel_size: 3
    pad: 1
    opad: 1
    physical_padding: true
    weight_filler {
      type: "XAVIER"
    }
    bias_term: false
    #bwd_relu: true
  }
}
node {
  name: "3C/p3_3x3b/bn"
  type: "FusedBatchNorm"
  bottom: "3C/p3_3x3b"
  top: "3C/p3_3x3b/bn"
  param {
    lr_mult: 1.0
    decay_mult: 1.0
  }
  fused_bnorm_param {
    engine: XSMM
    ipad: 1
    pad: 0
    mmf: 0.9
    eps: 0.0001
    #bwd_relu: false
    #scale_bias: true
  }
}
node {
  name: "3C/p4_pool"
  type: "Pooling"
  bottom: "3B/concat"
  top: "3C/p4_pool"
  pooling_param {
    engine: XSMM
    pool: AVE
    kernel_size: 3
    pad: 1
  }
}
node {
  name: "3C/p4_1x1"
  type: "Convolution"
  bottom: "3C/p4_pool"
  top: "3C/p4_1x1"
  param {
    lr_mult: 1.0
    decay_mult: 1.0
  }
  convolution_param {
    engine: XSMM
    num_output: 64
    kernel_size: 1
    weight_filler {
      type: "XAVIER"
    }
    bias_term: false
    #bwd_relu: true
  }
}
node {
  name: "3C/p4_1x1/bn"
  type: "FusedBatchNorm"
  bottom: "3C/p4_1x1"
  top: "3C/p4_1x1/bn"
  param {
    lr_mult: 1.0
    decay_mult: 1.0
  }
  fused_bnorm_param {
    engine: XSMM
    mmf: 0.9
    eps: 0.0001
    #bwd_relu: false
    #scale_bias: true
  }
}
node {
  name: "3C/concat"
  type: "Concat"
  bottom: "3C/p1_1x1/bn"
  bottom: "3C/p2_3x3/bn"
  bottom: "3C/p3_3x3b/bn"
  bottom: "3C/p4_1x1/bn"
  top: "3C/concat"
  concat_param {
    engine: XSMM
  }
}
node {
  name: "3R/p1_1x1"
  type: "Convolution"
  bottom: "3C/concat"
  top: "3R/p1_1x1"
  param {
    lr_mult: 1.0
    decay_mult: 1.0
  }
  convolution_param {
    engine: XSMM
    num_output: 64
    kernel_size: 1
    weight_filler {
      type: "XAVIER"
    }
    bias_term: false
    #bwd_relu: true
  }
}
node {
  name: "3R/p1_1x1/bn"
  type: "FusedBatchNorm"
  bottom: "3R/p1_1x1"
  top: "3R/p1_1x1/bn"
  param {
    lr_mult: 1.0
    decay_mult: 1.0
  }
  fused_bnorm_param {
    engine: XSMM
    pad: 1
    mmf: 0.9
    eps: 0.0001
    #bwd_relu: false
    #scale_bias: true
  }
}
node {
  name: "3R/p1_3x3a"
  type: "Convolution"
  bottom: "3R/p1_1x1/bn"
  top: "3R/p1_3x3a"
  param {
    lr_mult: 1.0
    decay_mult: 1.0
  }
  convolution_param {
    engine: XSMM
    num_output: 96
    kernel_size: 3
    pad: 1
    opad: 1
    physical_padding: true
    weight_filler {
      type: "XAVIER"
    }
    bias_term: false
    #bwd_relu: true
  }
}
node {
  name: "3R/p1_3x3a/bn"
  type: "FusedBatchNorm"
  bottom: "3R/p1_3x3a"
  top: "3R/p1_3x3a/bn"
  param {
    lr_mult: 1.0
    decay_mult: 1.0
  }
  fused_bnorm_param {
    engine: XSMM
    ipad: 1
    pad: 0
    mmf: 0.9
    eps: 0.0001
    #bwd_relu: false
    #scale_bias: true
  }
}
node {
  name: "3R/p1_3x3b"
  type: "Convolution"
  bottom: "3R/p1_3x3a/bn"
  top: "3R/p1_3x3b"
  param {
    lr_mult: 1.0
    decay_mult: 1.0
  }
  convolution_param {
    engine: XSMM
    num_output: 96
    kernel_size: 3
    stride: 2
    weight_filler {
      type: "XAVIER"
    }
    bias_term: false
    #bwd_relu: true
  }
}
node {
  name: "3R/p1_3x3b/bn"
  type: "FusedBatchNorm"
  bottom: "3R/p1_3x3b"
  top: "3R/p1_3x3b/bn"
  param {
    lr_mult: 1.0
    decay_mult: 1.0
  }
  fused_bnorm_param {
    engine: XSMM
    mmf: 0.9
    eps: 0.0001
    #bwd_relu: false
    #scale_bias: true
  }
}
node {
  name: "3R/p2_3x3"
  type: "Convolution"
  bottom: "3C/concat"
  top: "3R/p2_3x3"
  param {
    lr_mult: 1.0
    decay_mult: 1.0
  }
  convolution_param {
    engine: XSMM
    num_output: 384
    kernel_size: 3
    stride: 2
    weight_filler {
      type: "XAVIER"
    }
    bias_term: false
    #bwd_relu: true
  }
}
node {
  name: "3R/p2_3x3/bn"
  type: "FusedBatchNorm"
  bottom: "3R/p2_3x3"
  top: "3R/p2_3x3/bn"
  param {
    lr_mult: 1.0
    decay_mult: 1.0
  }
  fused_bnorm_param {
    engine: XSMM
    mmf: 0.9
    eps: 0.0001
    #bwd_relu: false
    #scale_bias: true
  }
}
node {
  name: "3R/p3_pool"
  type: "Pooling"
  bottom: "3C/concat"
  top: "3R/p3_pool"
  pooling_param {
    engine: XSMM
    pool: MAX
    kernel_size: 3
    stride: 2
  }
}
node {
  name: "3R/concat"
  type: "Concat"
  bottom: "3R/p1_3x3b/bn"
  bottom: "3R/p2_3x3/bn"
  bottom: "3R/p3_pool"
  top: "3R/concat"
  concat_param {
    engine: XSMM
  }
}
node {
  name: "loss1/pool"
  type: "Pooling"
  bottom: "3R/concat"
  top: "loss1/pool"
  pooling_param {
    engine: XSMM
    pool: AVE
    kernel_size: 5
    stride: 3
  }
}
node {
  name: "loss1/conv"
  type: "Convolution"
  bottom: "loss1/pool"
  top: "loss1/conv"
  param {
    lr_mult: 1.0
    decay_mult: 1.0
  }
  convolution_param {
    engine: XSMM
    num_output: 128
    kernel_size: 1
    weight_filler {
      type: "XAVIER"
    }
    bias_term: false
    #bwd_relu: true
  }
}
node {
  name: "loss1/conv/bn"
  type: "FusedBatchNorm"
  bottom: "loss1/conv"
  top: "loss1/conv/bn"
  param {
    lr_mult: 1.0
    decay_mult: 1.0
  }
  fused_bnorm_param {
    engine: XSMM
    mmf: 0.9
    eps: 0.0001
    #bwd_relu: false
    #scale_bias: true
  }
}
node {
  name: "loss1/fc1"
  type: "FullyConnected"
  bottom: "loss1/conv/bn"
  top: "loss1/fc1"
  param {
    lr_mult: 1.0
    decay_mult: 1.0
  }
  fc_param {
    engine: XSMM
    num_output: 1024
    weight_filler {
      type: "XAVIER"
    }
    bias_filler {
      type: "constant"
      value: 0
    }
  }
}
node {
  name: "loss1/relu"
  type: "ReLU"
  bottom: "loss1/fc1"
  top: "loss1/relu"
}
node {
  name: "loss1/fc2"
  type: "FullyConnected"
  bottom: "loss1/relu"
  top: "loss1/fc2"
  param {
    lr_mult: 1.0
    decay_mult: 1.0
  }
  fc_param {
    engine: XSMM
    num_output: 1000
    weight_filler {
      type: "XAVIER"
    }
    bias_filler {
      type: "constant"
      value: 0
    }
  }
}
node {
  name: "loss1/loss"
  type: "SoftmaxWithLoss"
  bottom: "loss1/fc2"
  bottom: "label"
  top: "loss1/loss"
  loss_weight: 0.3
 }

node {
  name: "loss1/top-1"
  type: "Accuracy"
  bottom: "loss1/fc2"
  bottom: "label"
  top: "loss1/top-1"
  propagate_down: false
  accuracy_param { top_k: 1 }
}
node {
  name: "loss1/top-5"
  type: "Accuracy"
  bottom: "loss1/fc2"
  bottom: "label"
  top: "loss1/top-5"
  propagate_down: false
  accuracy_param { top_k: 5 }
}
node {
  name: "4A/p1_1x1"
  type: "Convolution"
  bottom: "3R/concat"
  top: "4A/p1_1x1"
  param {
    lr_mult: 1.0
    decay_mult: 1.0
  }
  convolution_param {
    engine: XSMM
    num_output: 192
    kernel_size: 1
    weight_filler {
      type: "XAVIER"
    }
    bias_term: false
    #bwd_relu: true
  }
}
node {
  name: "4A/p1_1x1/bn"
  type: "FusedBatchNorm"
  bottom: "4A/p1_1x1"
  top: "4A/p1_1x1/bn"
  param {
    lr_mult: 1.0
    decay_mult: 1.0
  }
  fused_bnorm_param {
    engine: XSMM
    mmf: 0.9
    eps: 0.0001
    #bwd_relu: false
    #scale_bias: true
  }
}
node {
  name: "4A/p2_1x1"
  type: "Convolution"
  bottom: "3R/concat"
  top: "4A/p2_1x1"
  param {
    lr_mult: 1.0
    decay_mult: 1.0
  }
  convolution_param {
    engine: XSMM
    num_output: 128
    kernel_size: 1
    weight_filler {
      type: "XAVIER"
    }
    bias_term: false
    #bwd_relu: true
  }
}
node {
  name: "4A/p2_1x1/bn"
  type: "FusedBatchNorm"
  bottom: "4A/p2_1x1"
  top: "4A/p2_1x1/bn"
  param {
    lr_mult: 1.0
    decay_mult: 1.0
  }
  fused_bnorm_param {
    engine: XSMM
    pad_w: 3
    mmf: 0.9
    eps: 0.0001
    #bwd_relu: false
    #scale_bias: true
  }
}
node {
  name: "4A/p2_1x7"
  type: "Convolution"
  bottom: "4A/p2_1x1/bn"
  top: "4A/p2_1x7"
  param {
    lr_mult: 1.0
    decay_mult: 1.0
  }
  convolution_param {
    engine: XSMM
    num_output: 128
    kernel_h: 1
    kernel_w: 7
    pad_w: 3
    opad_w: 3
    physical_padding: true
    weight_filler {
      type: "XAVIER"
    }
    bias_term: false
    #bwd_relu: true
  }
}
node {
  name: "4A/p2_1x7/bn"
  type: "FusedBatchNorm"
  bottom: "4A/p2_1x7"
  top: "4A/p2_1x7/bn"
  param {
    lr_mult: 1.0
    decay_mult: 1.0
  }
  fused_bnorm_param {
    engine: XSMM
    ipad_w: 3
    pad_h: 3
    mmf: 0.9
    eps: 0.0001
    #bwd_relu: false
    #scale_bias: true
  }
}
node {
  name: "4A/p2_7x1"
  type: "Convolution"
  bottom: "4A/p2_1x7/bn"
  top: "4A/p2_7x1"
  param {
    lr_mult: 1.0
    decay_mult: 1.0
  }
  convolution_param {
    engine: XSMM
    num_output: 192
    kernel_h: 7
    kernel_w: 1
    pad_h: 3
    opad_h: 3
    physical_padding: true
    weight_filler {
      type: "XAVIER"
    }
    bias_term: false
    #bwd_relu: true
  }
}
node {
  name: "4A/p2_7x1/bn"
  type: "FusedBatchNorm"
  bottom: "4A/p2_7x1"
  top: "4A/p2_7x1/bn"
  param {
    lr_mult: 1.0
    decay_mult: 1.0
  }
  fused_bnorm_param {
    engine: XSMM
    ipad_h: 3
    pad_h: 0
    pad_w: 0
    mmf: 0.9
    eps: 0.0001
    #bwd_relu: false
    #scale_bias: true
  }
}
node {
  name: "4A/p3_1x1"
  type: "Convolution"
  bottom: "3R/concat"
  top: "4A/p3_1x1"
  param {
    lr_mult: 1.0
    decay_mult: 1.0
  }
  convolution_param {
    engine: XSMM
    num_output: 128
    kernel_size: 1
    weight_filler {
      type: "XAVIER"
    }
    bias_term: false
    #bwd_relu: true
  }
}
node {
  name: "4A/p3_1x1/bn"
  type: "FusedBatchNorm"
  bottom: "4A/p3_1x1"
  top: "4A/p3_1x1/bn"
  param {
    lr_mult: 1.0
    decay_mult: 1.0
  }
  fused_bnorm_param {
    engine: XSMM
    pad_w: 3
    mmf: 0.9
    eps: 0.0001
    #bwd_relu: false
    #scale_bias: true
  }
}
node {
  name: "4A/p3_1x7a"
  type: "Convolution"
  bottom: "4A/p3_1x1/bn"
  top: "4A/p3_1x7a"
  param {
    lr_mult: 1.0
    decay_mult: 1.0
  }
  convolution_param {
    engine: XSMM
    num_output: 128
    kernel_h: 1
    kernel_w: 7
    pad_w: 3
    opad_w: 3
    physical_padding: true
    weight_filler {
      type: "XAVIER"
    }
    bias_term: false
    #bwd_relu: true
  }
}
node {
  name: "4A/p3_1x7a/bn"
  type: "FusedBatchNorm"
  bottom: "4A/p3_1x7a"
  top: "4A/p3_1x7a/bn"
  param {
    lr_mult: 1.0
    decay_mult: 1.0
  }
  fused_bnorm_param {
    engine: XSMM
    ipad_w: 3
    pad_w: 0
    pad_h: 3
    mmf: 0.9
    eps: 0.0001
    #bwd_relu: false
    #scale_bias: true
  }
}
node {
  name: "4A/p3_7x1a"
  type: "Convolution"
  bottom: "4A/p3_1x7a/bn"
  top: "4A/p3_7x1a"
  param {
    lr_mult: 1.0
    decay_mult: 1.0
  }
  convolution_param {
    engine: XSMM
    num_output: 128
    kernel_h: 7
    kernel_w: 1
    pad_h: 3
    opad_h: 3
    physical_padding: true
    weight_filler {
      type: "XAVIER"
    }
    bias_term: false
    #bwd_relu: true
  }
}
node {
  name: "4A/p3_7x1a/bn"
  type: "FusedBatchNorm"
  bottom: "4A/p3_7x1a"
  top: "4A/p3_7x1a/bn"
  param {
    lr_mult: 1.0
    decay_mult: 1.0
  }
  fused_bnorm_param {
    engine: XSMM
    ipad_h: 3
    pad_h: 0
    pad_w: 0
    mmf: 0.9
    eps: 0.0001
    #bwd_relu: false
    #scale_bias: true
  }
}
node {
  name: "4A/p3_1x7b"
  type: "Convolution"
  bottom: "4A/p3_7x1a/bn"
  top: "4A/p3_1x7b"
  param {
    lr_mult: 1.0
    decay_mult: 1.0
  }
  convolution_param {
    engine: XSMM
    num_output: 128
    kernel_h: 1
    kernel_w: 7
    pad_w: 3
    weight_filler {
      type: "XAVIER"
    }
    bias_term: false
    #bwd_relu: true
  }
}
node {
  name: "4A/p3_1x7b/bn"
  type: "FusedBatchNorm"
  bottom: "4A/p3_1x7b"
  top: "4A/p3_1x7b/bn"
  param {
    lr_mult: 1.0
    decay_mult: 1.0
  }
  fused_bnorm_param {
    engine: XSMM
    pad_h: 3
    mmf: 0.9
    eps: 0.0001
    #bwd_relu: false
    #scale_bias: true
  }
}
node {
  name: "4A/p3_7x1b"
  type: "Convolution"
  bottom: "4A/p3_1x7b/bn"
  top: "4A/p3_7x1b"
  param {
    lr_mult: 1.0
    decay_mult: 1.0
  }
  convolution_param {
    engine: XSMM
    num_output: 192
    kernel_h: 7
    kernel_w: 1
    pad_h: 3
    opad_h: 3
    physical_padding: true
    weight_filler {
      type: "XAVIER"
    }
    bias_term: false
    #bwd_relu: true
  }
}
node {
  name: "4A/p3_7x1b/bn"
  type: "FusedBatchNorm"
  bottom: "4A/p3_7x1b"
  top: "4A/p3_7x1b/bn"
  param {
    lr_mult: 1.0
    decay_mult: 1.0
  }
  fused_bnorm_param {
    engine: XSMM
    ipad_h: 3
    pad_h: 0
    mmf: 0.9
    eps: 0.0001
    #bwd_relu: false
    #scale_bias: true
  }
}
node {
  name: "4A/p4_pool"
  type: "Pooling"
  bottom: "3R/concat"
  top: "4A/p4_pool"
  pooling_param {
    engine: XSMM
    pool: AVE
    kernel_size: 3
    pad: 1
  }
}
node {
  name: "4A/p4_1x1"
  type: "Convolution"
  bottom: "4A/p4_pool"
  top: "4A/p4_1x1"
  param {
    lr_mult: 1.0
    decay_mult: 1.0
  }
  convolution_param {
    engine: XSMM
    num_output: 192
    kernel_size: 1
    weight_filler {
      type: "XAVIER"
    }
    bias_term: false
    #bwd_relu: true
  }
}
node {
  name: "4A/p4_1x1/bn"
  type: "FusedBatchNorm"
  bottom: "4A/p4_1x1"
  top: "4A/p4_1x1/bn"
  param {
    lr_mult: 1.0
    decay_mult: 1.0
  }
  fused_bnorm_param {
    engine: XSMM
    mmf: 0.9
    eps: 0.0001
    #bwd_relu: false
    #scale_bias: true
  }
}
node {
  name: "4A/concat"
  type: "Concat"
  bottom: "4A/p1_1x1/bn"
  bottom: "4A/p2_7x1/bn"
  bottom: "4A/p3_7x1b/bn"
  bottom: "4A/p4_1x1/bn"
  top: "4A/concat"
  concat_param {
    engine: XSMM
  }
}
node {
  name: "4B/p1_1x1"
  type: "Convolution"
  bottom: "4A/concat"
  top: "4B/p1_1x1"
  param {
    lr_mult: 1.0
    decay_mult: 1.0
  }
  convolution_param {
    engine: XSMM
    num_output: 192
    kernel_size: 1
    weight_filler {
      type: "XAVIER"
    }
    bias_term: false
    #bwd_relu: true
  }
}
node {
  name: "4B/p1_1x1/bn"
  type: "FusedBatchNorm"
  bottom: "4B/p1_1x1"
  top: "4B/p1_1x1/bn"
  param {
    lr_mult: 1.0
    decay_mult: 1.0
  }
  fused_bnorm_param {
    engine: XSMM
    mmf: 0.9
    eps: 0.0001
    #bwd_relu: false
    #scale_bias: true
  }
}
node {
  name: "4B/p2_1x1"
  type: "Convolution"
  bottom: "4A/concat"
  top: "4B/p2_1x1"
  param {
    lr_mult: 1.0
    decay_mult: 1.0
  }
  convolution_param {
    engine: XSMM
    num_output: 160
    kernel_size: 1
    weight_filler {
      type: "XAVIER"
    }
    bias_term: false
    #bwd_relu: true
  }
}
node {
  name: "4B/p2_1x1/bn"
  type: "FusedBatchNorm"
  bottom: "4B/p2_1x1"
  top: "4B/p2_1x1/bn"
  param {
    lr_mult: 1.0
    decay_mult: 1.0
  }
  fused_bnorm_param {
    engine: XSMM
    pad_w: 3
    mmf: 0.9
    eps: 0.0001
    #bwd_relu: false
    #scale_bias: true
  }
}
node {
  name: "4B/p2_1x7"
  type: "Convolution"
  bottom: "4B/p2_1x1/bn"
  top: "4B/p2_1x7"
  param {
    lr_mult: 1.0
    decay_mult: 1.0
  }
  convolution_param {
    engine: XSMM
    num_output: 160
    kernel_h: 1
    kernel_w: 7
    pad_w: 3
    opad_w: 3
    physical_padding: true
    weight_filler {
      type: "XAVIER"
    }
    bias_term: false
    #bwd_relu: true
  }
}
node {
  name: "4B/p2_1x7/bn"
  type: "FusedBatchNorm"
  bottom: "4B/p2_1x7"
  top: "4B/p2_1x7/bn"
  param {
    lr_mult: 1.0
    decay_mult: 1.0
  }
  fused_bnorm_param {
    engine: XSMM
    ipad_w: 3
    pad_h: 3
    mmf: 0.9
    eps: 0.0001
    #bwd_relu: false
    #scale_bias: true
  }
}
node {
  name: "4B/p2_7x1"
  type: "Convolution"
  bottom: "4B/p2_1x7/bn"
  top: "4B/p2_7x1"
  param {
    lr_mult: 1.0
    decay_mult: 1.0
  }
  convolution_param {
    engine: XSMM
    num_output: 192
    kernel_h: 7
    kernel_w: 1
    pad_h: 3
    opad_h: 3
    physical_padding: true
    weight_filler {
      type: "XAVIER"
    }
    bias_term: false
    #bwd_relu: true
  }
}
node {
  name: "4B/p2_7x1/bn"
  type: "FusedBatchNorm"
  bottom: "4B/p2_7x1"
  top: "4B/p2_7x1/bn"
  param {
    lr_mult: 1.0
    decay_mult: 1.0
  }
  fused_bnorm_param {
    engine: XSMM
    ipad_h: 3
    pad_h: 0
    pad_w: 0
    mmf: 0.9
    eps: 0.0001
    #bwd_relu: false
    #scale_bias: true
  }
}
node {
  name: "4B/p3_1x1"
  type: "Convolution"
  bottom: "4A/concat"
  top: "4B/p3_1x1"
  param {
    lr_mult: 1.0
    decay_mult: 1.0
  }
  convolution_param {
    engine: XSMM
    num_output: 160
    kernel_size: 1
    weight_filler {
      type: "XAVIER"
    }
    bias_term: false
    #bwd_relu: true
  }
}
node {
  name: "4B/p3_1x1/bn"
  type: "FusedBatchNorm"
  bottom: "4B/p3_1x1"
  top: "4B/p3_1x1/bn"
  param {
    lr_mult: 1.0
    decay_mult: 1.0
  }
  fused_bnorm_param {
    engine: XSMM
    pad_w: 3
    mmf: 0.9
    eps: 0.0001
    #bwd_relu: false
    #scale_bias: true
  }
}
node {
  name: "4B/p3_1x7a"
  type: "Convolution"
  bottom: "4B/p3_1x1/bn"
  top: "4B/p3_1x7a"
  param {
    lr_mult: 1.0
    decay_mult: 1.0
  }
  convolution_param {
    engine: XSMM
    num_output: 160
    kernel_h: 1
    kernel_w: 7
    pad_w: 3
    opad_w: 3
    physical_padding: true
    weight_filler {
      type: "XAVIER"
    }
    bias_term: false
    #bwd_relu: true
  }
}
node {
  name: "4B/p3_1x7a/bn"
  type: "FusedBatchNorm"
  bottom: "4B/p3_1x7a"
  top: "4B/p3_1x7a/bn"
  param {
    lr_mult: 1.0
    decay_mult: 1.0
  }
  fused_bnorm_param {
    engine: XSMM
    ipad_w: 3
    pad_h: 3
    mmf: 0.9
    eps: 0.0001
    #bwd_relu: false
    #scale_bias: true
  }
}
node {
  name: "4B/p3_7x1a"
  type: "Convolution"
  bottom: "4B/p3_1x7a/bn"
  top: "4B/p3_7x1a"
  param {
    lr_mult: 1.0
    decay_mult: 1.0
  }
  convolution_param {
    engine: XSMM
    num_output: 160
    kernel_h: 7
    kernel_w: 1
    pad_h: 3
    opad_h: 3
    physical_padding: true
    weight_filler {
      type: "XAVIER"
    }
    bias_term: false
    #bwd_relu: true
  }
}
node {
  name: "4B/p3_7x1a/bn"
  type: "FusedBatchNorm"
  bottom: "4B/p3_7x1a"
  top: "4B/p3_7x1a/bn"
  param {
    lr_mult: 1.0
    decay_mult: 1.0
  }
  fused_bnorm_param {
    engine: XSMM
    ipad_h: 3
    pad_w: 3
    mmf: 0.9
    eps: 0.0001
    #bwd_relu: false
    #scale_bias: true
  }
}
node {
  name: "4B/p3_1x7b"
  type: "Convolution"
  bottom: "4B/p3_7x1a/bn"
  top: "4B/p3_1x7b"
  param {
    lr_mult: 1.0
    decay_mult: 1.0
  }
  convolution_param {
    engine: XSMM
    num_output: 160
    kernel_h: 1
    kernel_w: 7
    pad_w: 3
    opad_w: 3
    physical_padding: true
    weight_filler {
      type: "XAVIER"
    }
    bias_term: false
    #bwd_relu: true
  }
}
node {
  name: "4B/p3_1x7b/bn"
  type: "FusedBatchNorm"
  bottom: "4B/p3_1x7b"
  top: "4B/p3_1x7b/bn"
  param {
    lr_mult: 1.0
    decay_mult: 1.0
  }
  fused_bnorm_param {
    engine: XSMM
    ipad_w: 3
    pad_h: 3
    mmf: 0.9
    eps: 0.0001
    #bwd_relu: false
    #scale_bias: true
  }
}
node {
  name: "4B/p3_7x1b"
  type: "Convolution"
  bottom: "4B/p3_1x7b/bn"
  top: "4B/p3_7x1b"
  param {
    lr_mult: 1.0
    decay_mult: 1.0
  }
  convolution_param {
    engine: XSMM
    num_output: 192
    kernel_h: 7
    kernel_w: 1
    pad_h: 3
    opad_h: 3
    physical_padding: true
    weight_filler {
      type: "XAVIER"
    }
    bias_term: false
    #bwd_relu: true
  }
}
node {
  name: "4B/p3_7x1b/bn"
  type: "FusedBatchNorm"
  bottom: "4B/p3_7x1b"
  top: "4B/p3_7x1b/bn"
  param {
    lr_mult: 1.0
    decay_mult: 1.0
  }
  fused_bnorm_param {
    engine: XSMM
    ipad_h: 3
    pad_h: 0
    pad_w: 0
    mmf: 0.9
    eps: 0.0001
    #bwd_relu: false
    #scale_bias: true
  }
}
node {
  name: "4B/p4_pool"
  type: "Pooling"
  bottom: "4A/concat"
  top: "4B/p4_pool"
  pooling_param {
    engine: XSMM
    pool: AVE
    kernel_size: 3
    pad: 1
  }
}
node {
  name: "4B/p4_1x1"
  type: "Convolution"
  bottom: "4B/p4_pool"
  top: "4B/p4_1x1"
  param {
    lr_mult: 1.0
    decay_mult: 1.0
  }
  convolution_param {
    engine: XSMM
    num_output: 192
    kernel_size: 1
    weight_filler {
      type: "XAVIER"
    }
    bias_term: false
    #bwd_relu: true
  }
}
node {
  name: "4B/p4_1x1/bn"
  type: "FusedBatchNorm"
  bottom: "4B/p4_1x1"
  top: "4B/p4_1x1/bn"
  param {
    lr_mult: 1.0
    decay_mult: 1.0
  }
  fused_bnorm_param {
    engine: XSMM
    mmf: 0.9
    eps: 0.0001
    #bwd_relu: false
    #scale_bias: true
  }
}
node {
  name: "4B/concat"
  type: "Concat"
  bottom: "4B/p1_1x1/bn"
  bottom: "4B/p2_7x1/bn"
  bottom: "4B/p3_7x1b/bn"
  bottom: "4B/p4_1x1/bn"
  top: "4B/concat"
  concat_param {
    engine: XSMM
  }
}
node {
  name: "4C/p1_1x1"
  type: "Convolution"
  bottom: "4B/concat"
  top: "4C/p1_1x1"
  param {
    lr_mult: 1.0
    decay_mult: 1.0
  }
  convolution_param {
    engine: XSMM
    num_output: 192
    kernel_size: 1
    weight_filler {
      type: "XAVIER"
    }
    bias_term: false
    #bwd_relu: true
  }
}
node {
  name: "4C/p1_1x1/bn"
  type: "FusedBatchNorm"
  bottom: "4C/p1_1x1"
  top: "4C/p1_1x1/bn"
  param {
    lr_mult: 1.0
    decay_mult: 1.0
  }
  fused_bnorm_param {
    engine: XSMM
    mmf: 0.9
    eps: 0.0001
    #bwd_relu: false
    #scale_bias: true
  }
}
node {
  name: "4C/p2_1x1"
  type: "Convolution"
  bottom: "4B/concat"
  top: "4C/p2_1x1"
  param {
    lr_mult: 1.0
    decay_mult: 1.0
  }
  convolution_param {
    engine: XSMM
    num_output: 160
    kernel_size: 1
    weight_filler {
      type: "XAVIER"
    }
    bias_term: false
    #bwd_relu: true
  }
}
node {
  name: "4C/p2_1x1/bn"
  type: "FusedBatchNorm"
  bottom: "4C/p2_1x1"
  top: "4C/p2_1x1/bn"
  param {
    lr_mult: 1.0
    decay_mult: 1.0
  }
  fused_bnorm_param {
    engine: XSMM
    pad_w: 3
    mmf: 0.9
    eps: 0.0001
    #bwd_relu: false
    #scale_bias: true
  }
}
node {
  name: "4C/p2_1x7"
  type: "Convolution"
  bottom: "4C/p2_1x1/bn"
  top: "4C/p2_1x7"
  param {
    lr_mult: 1.0
    decay_mult: 1.0
  }
  convolution_param {
    engine: XSMM
    num_output: 160
    kernel_h: 1
    kernel_w: 7
    pad_w: 3
    opad_w: 3
    physical_padding: true
    weight_filler {
      type: "XAVIER"
    }
    bias_term: false
    #bwd_relu: true
  }
}
node {
  name: "4C/p2_1x7/bn"
  type: "FusedBatchNorm"
  bottom: "4C/p2_1x7"
  top: "4C/p2_1x7/bn"
  param {
    lr_mult: 1.0
    decay_mult: 1.0
  }
  fused_bnorm_param {
    engine: XSMM
    ipad_w: 3
    pad_h: 3
    mmf: 0.9
    eps: 0.0001
    #bwd_relu: false
    #scale_bias: true
  }
}
node {
  name: "4C/p2_7x1"
  type: "Convolution"
  bottom: "4C/p2_1x7/bn"
  top: "4C/p2_7x1"
  param {
    lr_mult: 1.0
    decay_mult: 1.0
  }
  convolution_param {
    engine: XSMM
    num_output: 192
    kernel_h: 7
    kernel_w: 1
    pad_h: 3
    opad_h: 3
    physical_padding: true
    weight_filler {
      type: "XAVIER"
    }
    bias_term: false
    #bwd_relu: true
  }
}
node {
  name: "4C/p2_7x1/bn"
  type: "FusedBatchNorm"
  bottom: "4C/p2_7x1"
  top: "4C/p2_7x1/bn"
  param {
    lr_mult: 1.0
    decay_mult: 1.0
  }
  fused_bnorm_param {
    engine: XSMM
    ipad_h: 3
    pad_h: 0
    mmf: 0.9
    eps: 0.0001
    #bwd_relu: false
    #scale_bias: true
  }
}
node {
  name: "4C/p3_1x1"
  type: "Convolution"
  bottom: "4B/concat"
  top: "4C/p3_1x1"
  param {
    lr_mult: 1.0
    decay_mult: 1.0
  }
  convolution_param {
    engine: XSMM
    num_output: 160
    kernel_size: 1
    weight_filler {
      type: "XAVIER"
    }
    bias_term: false
    #bwd_relu: true
  }
}
node {
  name: "4C/p3_1x1/bn"
  type: "FusedBatchNorm"
  bottom: "4C/p3_1x1"
  top: "4C/p3_1x1/bn"
  param {
    lr_mult: 1.0
    decay_mult: 1.0
  }
  fused_bnorm_param {
    engine: XSMM
    pad_w: 3
    mmf: 0.9
    eps: 0.0001
    #bwd_relu: false
    #scale_bias: true
  }
}
node {
  name: "4C/p3_1x7a"
  type: "Convolution"
  bottom: "4C/p3_1x1/bn"
  top: "4C/p3_1x7a"
  param {
    lr_mult: 1.0
    decay_mult: 1.0
  }
  convolution_param {
    engine: XSMM
    num_output: 160
    kernel_h: 1
    kernel_w: 7
    pad_w: 3
    opad_w: 3
    physical_padding: true
    weight_filler {
      type: "XAVIER"
    }
    bias_term: false
    #bwd_relu: true
  }
}
node {
  name: "4C/p3_1x7a/bn"
  type: "FusedBatchNorm"
  bottom: "4C/p3_1x7a"
  top: "4C/p3_1x7a/bn"
  param {
    lr_mult: 1.0
    decay_mult: 1.0
  }
  fused_bnorm_param {
    engine: XSMM
    ipad_w: 3
    pad_h: 3
    mmf: 0.9
    eps: 0.0001
    #bwd_relu: false
    #scale_bias: true
  }
}
node {
  name: "4C/p3_7x1a"
  type: "Convolution"
  bottom: "4C/p3_1x7a/bn"
  top: "4C/p3_7x1a"
  param {
    lr_mult: 1.0
    decay_mult: 1.0
  }
  convolution_param {
    engine: XSMM
    num_output: 160
    kernel_h: 7
    kernel_w: 1
    pad_h: 3
    opad_h: 3
    physical_padding: true
    weight_filler {
      type: "XAVIER"
    }
    bias_term: false
    #bwd_relu: true
  }
}
node {
  name: "4C/p3_7x1a/bn"
  type: "FusedBatchNorm"
  bottom: "4C/p3_7x1a"
  top: "4C/p3_7x1a/bn"
  param {
    lr_mult: 1.0
    decay_mult: 1.0
  }
  fused_bnorm_param {
    engine: XSMM
    ipad_h: 3
    pad_w: 3
    mmf: 0.9
    eps: 0.0001
    #bwd_relu: false
    #scale_bias: true
  }
}
node {
  name: "4C/p3_1x7b"
  type: "Convolution"
  bottom: "4C/p3_7x1a/bn"
  top: "4C/p3_1x7b"
  param {
    lr_mult: 1.0
    decay_mult: 1.0
  }
  convolution_param {
    engine: XSMM
    num_output: 160
    kernel_h: 1
    kernel_w: 7
    pad_w: 3
    opad_w: 3
    physical_padding: true
    weight_filler {
      type: "XAVIER"
    }
    bias_term: false
    #bwd_relu: true
  }
}
node {
  name: "4C/p3_1x7b/bn"
  type: "FusedBatchNorm"
  bottom: "4C/p3_1x7b"
  top: "4C/p3_1x7b/bn"
  param {
    lr_mult: 1.0
    decay_mult: 1.0
  }
  fused_bnorm_param {
    engine: XSMM
    ipad_w: 3
    pad_h: 3
    mmf: 0.9
    eps: 0.0001
    #bwd_relu: false
    #scale_bias: true
  }
}
node {
  name: "4C/p3_7x1b"
  type: "Convolution"
  bottom: "4C/p3_1x7b/bn"
  top: "4C/p3_7x1b"
  param {
    lr_mult: 1.0
    decay_mult: 1.0
  }
  convolution_param {
    engine: XSMM
    num_output: 192
    kernel_h: 7
    kernel_w: 1
    pad_h: 3
    opad_h: 3
    physical_padding: true
    weight_filler {
      type: "XAVIER"
    }
    bias_term: false
    #bwd_relu: true
  }
}
node {
  name: "4C/p3_7x1b/bn"
  type: "FusedBatchNorm"
  bottom: "4C/p3_7x1b"
  top: "4C/p3_7x1b/bn"
  param {
    lr_mult: 1.0
    decay_mult: 1.0
  }
  fused_bnorm_param {
    engine: XSMM
    ipad_h: 3
    pad_h: 0
    pad_w: 0
    mmf: 0.9
    eps: 0.0001
    #bwd_relu: false
    #scale_bias: true
  }
}
node {
  name: "4C/p4_pool"
  type: "Pooling"
  bottom: "4B/concat"
  top: "4C/p4_pool"
  pooling_param {
    engine: XSMM
    pool: AVE
    kernel_size: 3
    pad: 1
  }
}
node {
  name: "4C/p4_1x1"
  type: "Convolution"
  bottom: "4C/p4_pool"
  top: "4C/p4_1x1"
  param {
    lr_mult: 1.0
    decay_mult: 1.0
  }
  convolution_param {
    engine: XSMM
    num_output: 192
    kernel_size: 1
    weight_filler {
      type: "XAVIER"
    }
    bias_term: false
    #bwd_relu: true
  }
}
node {
  name: "4C/p4_1x1/bn"
  type: "FusedBatchNorm"
  bottom: "4C/p4_1x1"
  top: "4C/p4_1x1/bn"
  param {
    lr_mult: 1.0
    decay_mult: 1.0
  }
  fused_bnorm_param {
    engine: XSMM
    mmf: 0.9
    eps: 0.0001
    #bwd_relu: false
    #scale_bias: true
  }
}
node {
  name: "4C/concat"
  type: "Concat"
  bottom: "4C/p1_1x1/bn"
  bottom: "4C/p2_7x1/bn"
  bottom: "4C/p3_7x1b/bn"
  bottom: "4C/p4_1x1/bn"
  top: "4C/concat"
  concat_param {
    engine: XSMM
  }
}
node {
  name: "4D/p1_1x1"
  type: "Convolution"
  bottom: "4C/concat"
  top: "4D/p1_1x1"
  param {
    lr_mult: 1.0
    decay_mult: 1.0
  }
  convolution_param {
    engine: XSMM
    num_output: 192
    kernel_size: 1
    weight_filler {
      type: "XAVIER"
    }
    bias_term: false
    #bwd_relu: true
  }
}
node {
  name: "4D/p1_1x1/bn"
  type: "FusedBatchNorm"
  bottom: "4D/p1_1x1"
  top: "4D/p1_1x1/bn"
  param {
    lr_mult: 1.0
    decay_mult: 1.0
  }
  fused_bnorm_param {
    engine: XSMM
    mmf: 0.9
    eps: 0.0001
    #bwd_relu: false
    #scale_bias: true
  }
}
node {
  name: "4D/p2_1x1"
  type: "Convolution"
  bottom: "4C/concat"
  top: "4D/p2_1x1"
  param {
    lr_mult: 1.0
    decay_mult: 1.0
  }
  convolution_param {
    engine: XSMM
    num_output: 192
    kernel_size: 1
    weight_filler {
      type: "XAVIER"
    }
    bias_term: false
    #bwd_relu: true
  }
}
node {
  name: "4D/p2_1x1/bn"
  type: "FusedBatchNorm"
  bottom: "4D/p2_1x1"
  top: "4D/p2_1x1/bn"
  param {
    lr_mult: 1.0
    decay_mult: 1.0
  }
  fused_bnorm_param {
    engine: XSMM
    pad_w: 3
    mmf: 0.9
    eps: 0.0001
    #bwd_relu: false
    #scale_bias: true
  }
}
node {
  name: "4D/p2_1x7"
  type: "Convolution"
  bottom: "4D/p2_1x1/bn"
  top: "4D/p2_1x7"
  param {
    lr_mult: 1.0
    decay_mult: 1.0
  }
  convolution_param {
    engine: XSMM
    num_output: 192
    kernel_h: 1
    kernel_w: 7
    pad_w: 3
    opad_w: 3
    physical_padding: true
    weight_filler {
      type: "XAVIER"
    }
    bias_term: false
    #bwd_relu: true
  }
}
node {
  name: "4D/p2_1x7/bn"
  type: "FusedBatchNorm"
  bottom: "4D/p2_1x7"
  top: "4D/p2_1x7/bn"
  param {
    lr_mult: 1.0
    decay_mult: 1.0
  }
  fused_bnorm_param {
    engine: XSMM
    ipad_w: 3
    pad_h: 3
    mmf: 0.9
    eps: 0.0001
    #bwd_relu: false
    #scale_bias: true
  }
}
node {
  name: "4D/p2_7x1"
  type: "Convolution"
  bottom: "4D/p2_1x7/bn"
  top: "4D/p2_7x1"
  param {
    lr_mult: 1.0
    decay_mult: 1.0
  }
  convolution_param {
    engine: XSMM
    num_output: 192
    kernel_h: 7
    kernel_w: 1
    pad_h: 3
    opad_h: 3
    physical_padding: true
    weight_filler {
      type: "XAVIER"
    }
    bias_term: false
    #bwd_relu: true
  }
}
node {
  name: "4D/p2_7x1/bn"
  type: "FusedBatchNorm"
  bottom: "4D/p2_7x1"
  top: "4D/p2_7x1/bn"
  param {
    lr_mult: 1.0
    decay_mult: 1.0
  }
  fused_bnorm_param {
    engine: XSMM
    ipad_h: 3
    pad_h: 0
    mmf: 0.9
    eps: 0.0001
    #bwd_relu: false
    #scale_bias: true
  }
}
node {
  name: "4D/p3_1x1"
  type: "Convolution"
  bottom: "4C/concat"
  top: "4D/p3_1x1"
  param {
    lr_mult: 1.0
    decay_mult: 1.0
  }
  convolution_param {
    engine: XSMM
    num_output: 192
    kernel_size: 1
    weight_filler {
      type: "XAVIER"
    }
    bias_term: false
    #bwd_relu: true
  }
}
node {
  name: "4D/p3_1x1/bn"
  type: "FusedBatchNorm"
  bottom: "4D/p3_1x1"
  top: "4D/p3_1x1/bn"
  param {
    lr_mult: 1.0
    decay_mult: 1.0
  }
  fused_bnorm_param {
    engine: XSMM
    pad_w: 3
    mmf: 0.9
    eps: 0.0001
    #bwd_relu: false
    #scale_bias: true
  }
}
node {
  name: "4D/p3_1x7a"
  type: "Convolution"
  bottom: "4D/p3_1x1/bn"
  top: "4D/p3_1x7a"
  param {
    lr_mult: 1.0
    decay_mult: 1.0
  }
  convolution_param {
    engine: XSMM
    num_output: 192
    kernel_h: 1
    kernel_w: 7
    pad_w: 3
    opad_w: 3
    physical_padding: true
    weight_filler {
      type: "XAVIER"
    }
    bias_term: false
    #bwd_relu: true
  }
}
node {
  name: "4D/p3_1x7a/bn"
  type: "FusedBatchNorm"
  bottom: "4D/p3_1x7a"
  top: "4D/p3_1x7a/bn"
  param {
    lr_mult: 1.0
    decay_mult: 1.0
  }
  fused_bnorm_param {
    engine: XSMM
    ipad_w: 3
    pad_h: 3
    mmf: 0.9
    eps: 0.0001
    #bwd_relu: false
    #scale_bias: true
  }
}
node {
  name: "4D/p3_7x1a"
  type: "Convolution"
  bottom: "4D/p3_1x7a/bn"
  top: "4D/p3_7x1a"
  param {
    lr_mult: 1.0
    decay_mult: 1.0
  }
  convolution_param {
    engine: XSMM
    num_output: 192
    kernel_h: 7
    kernel_w: 1
    pad_h: 3
    opad_h: 3
    physical_padding: true
    weight_filler {
      type: "XAVIER"
    }
    bias_term: false
    #bwd_relu: true
  }
}
node {
  name: "4D/p3_7x1a/bn"
  type: "FusedBatchNorm"
  bottom: "4D/p3_7x1a"
  top: "4D/p3_7x1a/bn"
  param {
    lr_mult: 1.0
    decay_mult: 1.0
  }
  fused_bnorm_param {
    engine: XSMM
    ipad_h: 3
    pad_w: 3
    mmf: 0.9
    eps: 0.0001
    #bwd_relu: false
    #scale_bias: true
  }
}
node {
  name: "4D/p3_1x7b"
  type: "Convolution"
  bottom: "4D/p3_7x1a/bn"
  top: "4D/p3_1x7b"
  param {
    lr_mult: 1.0
    decay_mult: 1.0
  }
  convolution_param {
    engine: XSMM
    num_output: 192
    kernel_h: 1
    kernel_w: 7
    pad_w: 3
    opad_w: 3
    physical_padding: true
    weight_filler {
      type: "XAVIER"
    }
    bias_term: false
    #bwd_relu: true
  }
}
node {
  name: "4D/p3_1x7b/bn"
  type: "FusedBatchNorm"
  bottom: "4D/p3_1x7b"
  top: "4D/p3_1x7b/bn"
  param {
    lr_mult: 1.0
    decay_mult: 1.0
  }
  fused_bnorm_param {
    engine: XSMM
    ipad_w: 3
    pad_h: 3
    mmf: 0.9
    eps: 0.0001
    #bwd_relu: false
    #scale_bias: true
  }
}
node {
  name: "4D/p3_7x1b"
  type: "Convolution"
  bottom: "4D/p3_1x7b/bn"
  top: "4D/p3_7x1b"
  param {
    lr_mult: 1.0
    decay_mult: 1.0
  }
  convolution_param {
    engine: XSMM
    num_output: 192
    kernel_h: 7
    kernel_w: 1
    pad_h: 3
    opad_h: 3
    physical_padding: true
    weight_filler {
      type: "XAVIER"
    }
    bias_term: false
    #bwd_relu: true
  }
}
node {
  name: "4D/p3_7x1b/bn"
  type: "FusedBatchNorm"
  bottom: "4D/p3_7x1b"
  top: "4D/p3_7x1b/bn"
  param {
    lr_mult: 1.0
    decay_mult: 1.0
  }
  fused_bnorm_param {
    engine: XSMM
    ipad_h: 3
    pad_h: 0
    mmf: 0.9
    eps: 0.0001
    #bwd_relu: false
    #scale_bias: true
  }
}
node {
  name: "4D/p4_pool"
  type: "Pooling"
  bottom: "4C/concat"
  top: "4D/p4_pool"
  pooling_param {
    engine: XSMM
    pool: AVE
    kernel_size: 3
    pad: 1
  }
}
node {
  name: "4D/p4_1x1"
  type: "Convolution"
  bottom: "4D/p4_pool"
  top: "4D/p4_1x1"
  param {
    lr_mult: 1.0
    decay_mult: 1.0
  }
  convolution_param {
    engine: XSMM
    num_output: 192
    kernel_size: 1
    weight_filler {
      type: "XAVIER"
    }
    bias_term: false
    #bwd_relu: true
  }
}
node {
  name: "4D/p4_1x1/bn"
  type: "FusedBatchNorm"
  bottom: "4D/p4_1x1"
  top: "4D/p4_1x1/bn"
  param {
    lr_mult: 1.0
    decay_mult: 1.0
  }
  fused_bnorm_param {
    engine: XSMM
    mmf: 0.9
    eps: 0.0001
    #bwd_relu: false
    #scale_bias: true
  }
}
node {
  name: "4D/concat"
  type: "Concat"
  bottom: "4D/p1_1x1/bn"
  bottom: "4D/p2_7x1/bn"
  bottom: "4D/p3_7x1b/bn"
  bottom: "4D/p4_1x1/bn"
  top: "4D/concat"
  concat_param {
    engine: XSMM
  }
}
node {
  name: "4E/p1_1x1"
  type: "Convolution"
  bottom: "4D/concat"
  top: "4E/p1_1x1"
  param {
    lr_mult: 1.0
    decay_mult: 1.0
  }
  convolution_param {
    engine: XSMM
    num_output: 192
    kernel_size: 1
    weight_filler {
      type: "XAVIER"
    }
    bias_term: false
    #bwd_relu: true
  }
}
node {
  name: "4E/p1_1x1/bn"
  type: "FusedBatchNorm"
  bottom: "4E/p1_1x1"
  top: "4E/p1_1x1/bn"
  param {
    lr_mult: 1.0
    decay_mult: 1.0
  }
  fused_bnorm_param {
    engine: XSMM
    mmf: 0.9
    eps: 0.0001
    #bwd_relu: false
    #scale_bias: true
  }
}
node {
  name: "4E/p2_1x1"
  type: "Convolution"
  bottom: "4D/concat"
  top: "4E/p2_1x1"
  param {
    lr_mult: 1.0
    decay_mult: 1.0
  }
  convolution_param {
    engine: XSMM
    num_output: 192
    kernel_size: 1
    weight_filler {
      type: "XAVIER"
    }
    bias_term: false
    #bwd_relu: true
  }
}
node {
  name: "4E/p2_1x1/bn"
  type: "FusedBatchNorm"
  bottom: "4E/p2_1x1"
  top: "4E/p2_1x1/bn"
  param {
    lr_mult: 1.0
    decay_mult: 1.0
  }
  fused_bnorm_param {
    engine: XSMM
    pad_w: 3
    mmf: 0.9
    eps: 0.0001
    #bwd_relu: false
    #scale_bias: true
  }
}
node {
  name: "4E/p2_1x7"
  type: "Convolution"
  bottom: "4E/p2_1x1/bn"
  top: "4E/p2_1x7"
  param {
    lr_mult: 1.0
    decay_mult: 1.0
  }
  convolution_param {
    engine: XSMM
    num_output: 192
    kernel_h: 1
    kernel_w: 7
    pad_w: 3
    opad_w: 3
    physical_padding: true
    weight_filler {
      type: "XAVIER"
    }
    bias_term: false
    #bwd_relu: true
  }
}
node {
  name: "4E/p2_1x7/bn"
  type: "FusedBatchNorm"
  bottom: "4E/p2_1x7"
  top: "4E/p2_1x7/bn"
  param {
    lr_mult: 1.0
    decay_mult: 1.0
  }
  fused_bnorm_param {
    engine: XSMM
    ipad_w: 3
    pad_h: 3
    mmf: 0.9
    eps: 0.0001
    #bwd_relu: false
    #scale_bias: true
  }
}
node {
  name: "4E/p2_7x1"
  type: "Convolution"
  bottom: "4E/p2_1x7/bn"
  top: "4E/p2_7x1"
  param {
    lr_mult: 1.0
    decay_mult: 1.0
  }
  convolution_param {
    engine: XSMM
    num_output: 192
    kernel_h: 7
    kernel_w: 1
    pad_h: 3
    opad_h: 3
    physical_padding: true
    weight_filler {
      type: "XAVIER"
    }
    bias_term: false
    #bwd_relu: true
  }
}
node {
  name: "4E/p2_7x1/bn"
  type: "FusedBatchNorm"
  bottom: "4E/p2_7x1"
  top: "4E/p2_7x1/bn"
  param {
    lr_mult: 1.0
    decay_mult: 1.0
  }
  fused_bnorm_param {
    engine: XSMM
    ipad_h: 3
    mmf: 0.9
    eps: 0.0001
    #bwd_relu: false
    #scale_bias: true
  }
}
node {
  name: "4E/p3_1x1"
  type: "Convolution"
  bottom: "4D/concat"
  top: "4E/p3_1x1"
  param {
    lr_mult: 1.0
    decay_mult: 1.0
  }
  convolution_param {
    engine: XSMM
    num_output: 192
    kernel_size: 1
    weight_filler {
      type: "XAVIER"
    }
    bias_term: false
    #bwd_relu: true
  }
}
node {
  name: "4E/p3_1x1/bn"
  type: "FusedBatchNorm"
  bottom: "4E/p3_1x1"
  top: "4E/p3_1x1/bn"
  param {
    lr_mult: 1.0
    decay_mult: 1.0
  }
  fused_bnorm_param {
    engine: XSMM
    pad_w: 3
    mmf: 0.9
    eps: 0.0001
    #bwd_relu: false
    #scale_bias: true
  }
}
node {
  name: "4E/p3_1x7a"
  type: "Convolution"
  bottom: "4E/p3_1x1/bn"
  top: "4E/p3_1x7a"
  param {
    lr_mult: 1.0
    decay_mult: 1.0
  }
  convolution_param {
    engine: XSMM
    num_output: 192
    kernel_h: 1
    kernel_w: 7
    pad_w: 3
    opad_w: 3
    physical_padding: true
    weight_filler {
      type: "XAVIER"
    }
    bias_term: false
    #bwd_relu: true
  }
}
node {
  name: "4E/p3_1x7a/bn"
  type: "FusedBatchNorm"
  bottom: "4E/p3_1x7a"
  top: "4E/p3_1x7a/bn"
  param {
    lr_mult: 1.0
    decay_mult: 1.0
  }
  fused_bnorm_param {
    engine: XSMM
    ipad_w: 3
    pad_h: 3
    mmf: 0.9
    eps: 0.0001
    #bwd_relu: false
    #scale_bias: true
  }
}
node {
  name: "4E/p3_7x1a"
  type: "Convolution"
  bottom: "4E/p3_1x7a/bn"
  top: "4E/p3_7x1a"
  param {
    lr_mult: 1.0
    decay_mult: 1.0
  }
  convolution_param {
    engine: XSMM
    num_output: 192
    kernel_h: 7
    kernel_w: 1
    pad_h: 3
    opad_h: 3
    physical_padding: true
    weight_filler {
      type: "XAVIER"
    }
    bias_term: false
    #bwd_relu: true
  }
}
node {
  name: "4E/p3_7x1a/bn"
  type: "FusedBatchNorm"
  bottom: "4E/p3_7x1a"
  top: "4E/p3_7x1a/bn"
  param {
    lr_mult: 1.0
    decay_mult: 1.0
  }
  fused_bnorm_param {
    engine: XSMM
    ipad_h: 3
    pad_w: 3
    mmf: 0.9
    eps: 0.0001
    #bwd_relu: false
    #scale_bias: true
  }
}
node {
  name: "4E/p3_1x7b"
  type: "Convolution"
  bottom: "4E/p3_7x1a/bn"
  top: "4E/p3_1x7b"
  param {
    lr_mult: 1.0
    decay_mult: 1.0
  }
  convolution_param {
    engine: XSMM
    num_output: 192
    kernel_h: 1
    kernel_w: 7
    pad_w: 3
    opad_w: 3
    physical_padding: true
    weight_filler {
      type: "XAVIER"
    }
    bias_term: false
    #bwd_relu: true
  }
}
node {
  name: "4E/p3_1x7b/bn"
  type: "FusedBatchNorm"
  bottom: "4E/p3_1x7b"
  top: "4E/p3_1x7b/bn"
  param {
    lr_mult: 1.0
    decay_mult: 1.0
  }
  fused_bnorm_param {
    engine: XSMM
    ipad_w: 3
    pad_h: 3
    mmf: 0.9
    eps: 0.0001
    #bwd_relu: false
    #scale_bias: true
  }
}
node {
  name: "4E/p3_7x1b"
  type: "Convolution"
  bottom: "4E/p3_1x7b/bn"
  top: "4E/p3_7x1b"
  param {
    lr_mult: 1.0
    decay_mult: 1.0
  }
  convolution_param {
    engine: XSMM
    num_output: 192
    kernel_h: 7
    kernel_w: 1
    pad_h: 3
    opad_h: 3
    physical_padding: true
    weight_filler {
      type: "XAVIER"
    }
    bias_term: false
    #bwd_relu: true
  }
}
node {
  name: "4E/p3_7x1b/bn"
  type: "FusedBatchNorm"
  bottom: "4E/p3_7x1b"
  top: "4E/p3_7x1b/bn"
  param {
    lr_mult: 1.0
    decay_mult: 1.0
  }
  fused_bnorm_param {
    engine: XSMM
    ipad_h: 3
    pad_h: 0
    mmf: 0.9
    eps: 0.0001
    #bwd_relu: false
    #scale_bias: true
  }
}
node {
  name: "4E/p4_pool"
  type: "Pooling"
  bottom: "4D/concat"
  top: "4E/p4_pool"
  pooling_param {
    engine: XSMM
    pool: AVE
    kernel_size: 3
    pad: 1
  }
}
node {
  name: "4E/p4_1x1"
  type: "Convolution"
  bottom: "4E/p4_pool"
  top: "4E/p4_1x1"
  param {
    lr_mult: 1.0
    decay_mult: 1.0
  }
  convolution_param {
    engine: XSMM
    num_output: 192
    kernel_size: 1
    weight_filler {
      type: "XAVIER"
    }
    bias_term: false
    #bwd_relu: true
  }
}
node {
  name: "4E/p4_1x1/bn"
  type: "FusedBatchNorm"
  bottom: "4E/p4_1x1"
  top: "4E/p4_1x1/bn"
  param {
    lr_mult: 1.0
    decay_mult: 1.0
  }
  fused_bnorm_param {
    engine: XSMM
    mmf: 0.9
    eps: 0.0001
    #bwd_relu: false
    #scale_bias: true
  }
}
node {
  name: "4E/concat"
  type: "Concat"
  bottom: "4E/p1_1x1/bn"
  bottom: "4E/p2_7x1/bn"
  bottom: "4E/p3_7x1b/bn"
  bottom: "4E/p4_1x1/bn"
  top: "4E/concat"
  concat_param {
    engine: XSMM
  }
}
node {
  name: "4R/p1_1x1"
  type: "Convolution"
  bottom: "4E/concat"
  top: "4R/p1_1x1"
  param {
    lr_mult: 1.0
    decay_mult: 1.0
  }
  convolution_param {
    engine: XSMM
    num_output: 192
    kernel_size: 1
    weight_filler {
      type: "XAVIER"
    }
    bias_term: false
    #bwd_relu: true
  }
}
node {
  name: "4R/p1_1x1/bn"
  type: "FusedBatchNorm"
  bottom: "4R/p1_1x1"
  top: "4R/p1_1x1/bn"
  param {
    lr_mult: 1.0
    decay_mult: 1.0
  }
  fused_bnorm_param {
    engine: XSMM
    mmf: 0.9
    eps: 0.0001
    #bwd_relu: false
    #scale_bias: true
  }
}
node {
  name: "4R/p1_3x3"
  type: "Convolution"
  bottom: "4R/p1_1x1/bn"
  top: "4R/p1_3x3"
  param {
    lr_mult: 1.0
    decay_mult: 1.0
  }
  convolution_param {
    engine: XSMM
    num_output: 320
    kernel_size: 3
    stride: 2
    weight_filler {
      type: "XAVIER"
    }
    bias_term: false
    #bwd_relu: true
  }
}
node {
  name: "4R/p1_3x3/bn"
  type: "FusedBatchNorm"
  bottom: "4R/p1_3x3"
  top: "4R/p1_3x3/bn"
  param {
    lr_mult: 1.0
    decay_mult: 1.0
  }
  fused_bnorm_param {
    engine: XSMM
    mmf: 0.9
    eps: 0.0001
    #bwd_relu: false
    #scale_bias: true
  }
}
node {
  name: "4R/p2_1x1"
  type: "Convolution"
  bottom: "4E/concat"
  top: "4R/p2_1x1"
  param {
    lr_mult: 1.0
    decay_mult: 1.0
  }
  convolution_param {
    engine: XSMM
    num_output: 192
    kernel_size: 1
    weight_filler {
      type: "XAVIER"
    }
    bias_term: false
    #bwd_relu: true
  }
}
node {
  name: "4R/p2_1x1/bn"
  type: "FusedBatchNorm"
  bottom: "4R/p2_1x1"
  top: "4R/p2_1x1/bn"
  param {
    lr_mult: 1.0
    decay_mult: 1.0
  }
  fused_bnorm_param {
    engine: XSMM
    pad_w: 3
    mmf: 0.9
    eps: 0.0001
    #bwd_relu: false
    #scale_bias: true
  }
}
node {
  name: "4R/p2_1x7"
  type: "Convolution"
  bottom: "4R/p2_1x1/bn"
  top: "4R/p2_1x7"
  param {
    lr_mult: 1.0
    decay_mult: 1.0
  }
  convolution_param {
    engine: XSMM
    num_output: 192
    kernel_h: 1
    kernel_w: 7
    pad_w: 3
    opad_w: 3
    physical_padding: true
    weight_filler {
      type: "XAVIER"
    }
    bias_term: false
    #bwd_relu: true
  }
}
node {
  name: "4R/p2_1x7/bn"
  type: "FusedBatchNorm"
  bottom: "4R/p2_1x7"
  top: "4R/p2_1x7/bn"
  param {
    lr_mult: 1.0
    decay_mult: 1.0
  }
  fused_bnorm_param {
    engine: XSMM
    ipad_w: 3
    pad_h: 3
    mmf: 0.9
    eps: 0.0001
    #bwd_relu: false
    #scale_bias: true
  }
}
node {
  name: "4R/p2_7x1"
  type: "Convolution"
  bottom: "4R/p2_1x7/bn"
  top: "4R/p2_7x1"
  param {
    lr_mult: 1.0
    decay_mult: 1.0
  }
  convolution_param {
    engine: XSMM
    num_output: 192
    kernel_h: 7
    kernel_w: 1
    pad_h: 3
    opad_h: 3
    physical_padding: true
    weight_filler {
      type: "XAVIER"
    }
    bias_term: false
    #bwd_relu: true
  }
}
node {
  name: "4R/p2_7x1/bn"
  type: "FusedBatchNorm"
  bottom: "4R/p2_7x1"
  top: "4R/p2_7x1/bn"
  param {
    lr_mult: 1.0
    decay_mult: 1.0
  }
  fused_bnorm_param {
    engine: XSMM
    ipad_h: 3
    mmf: 0.9
    eps: 0.0001
    #bwd_relu: false
    #scale_bias: true
  }
}
node {
  name: "4R/p2_3x3"
  type: "Convolution"
  bottom: "4R/p2_7x1/bn"
  top: "4R/p2_3x3"
  param {
    lr_mult: 1.0
    decay_mult: 1.0
  }
  convolution_param {
    engine: XSMM
    num_output: 192
    kernel_size: 3
    stride: 2
    weight_filler {
      type: "XAVIER"
    }
    bias_term: false
    #bwd_relu: true
  }
}
node {
  name: "4R/p2_3x3/bn"
  type: "FusedBatchNorm"
  bottom: "4R/p2_3x3"
  top: "4R/p2_3x3/bn"
  param {
    lr_mult: 1.0
    decay_mult: 1.0
  }
  fused_bnorm_param {
    engine: XSMM
    mmf: 0.9
    eps: 0.0001
    #bwd_relu: false
    #scale_bias: true
  }
}
node {
  name: "4R/p3_pool"
  type: "Pooling"
  bottom: "4E/concat"
  top: "4R/p3_pool"
  pooling_param {
    engine: XSMM
    pool: MAX
    kernel_size: 3
    stride: 2
  }
}
node {
  name: "4R/concat"
  type: "Concat"
  bottom: "4R/p1_3x3/bn"
  bottom: "4R/p2_3x3/bn"
  bottom: "4R/p3_pool"
  top: "4R/concat"
  concat_param {
    engine: XSMM
  }
}
node {
  name: "loss2/pool"
  type: "Pooling"
  bottom: "4R/concat"
  top: "loss2/pool"
  pooling_param {
    engine: XSMM
    pool: AVE
    kernel_size: 5
    stride: 3
  }
}
node {
  name: "loss2/conv"
  type: "Convolution"
  bottom: "loss2/pool"
  top: "loss2/conv"
  param {
    lr_mult: 1.0
    decay_mult: 1.0
  }
  convolution_param {
    engine: XSMM
    num_output: 128
    kernel_size: 1
    weight_filler {
      type: "XAVIER"
    }
    bias_term: false
    #bwd_relu: true
  }
}
node {
  name: "loss2/conv/bn"
  type: "FusedBatchNorm"
  bottom: "loss2/conv"
  top: "loss2/conv/bn"
  param {
    lr_mult: 1.0
    decay_mult: 1.0
  }
  fused_bnorm_param {
    engine: XSMM
    mmf: 0.9
    eps: 0.0001
    #bwd_relu: false
    #scale_bias: true
  }
}
node {
  name: "loss2/fc1"
  type: "FullyConnected"
  bottom: "loss2/conv/bn"
  top: "loss2/fc1"
  param {
    lr_mult: 1.0
    decay_mult: 1.0
  }
  fc_param {
    engine: XSMM
    num_output: 1024
    weight_filler {
      type: "XAVIER"
    }
    bias_filler {
      type: "constant"
      value: 0
    }
  }
}
node {
  name: "loss2/relu"
  type: "ReLU"
  bottom: "loss2/fc1"
  top: "loss2/relu"
}
node {
  name: "loss2/fc2"
  type: "FullyConnected"
  bottom: "loss2/relu"
  top: "loss2/fc2"
  param {
    lr_mult: 1.0
    decay_mult: 1.0
  }
  fc_param {
    engine: XSMM
    num_output: 1000
    weight_filler {
      type: "XAVIER"
    }
    bias_filler {
      type: "constant"
      value: 0
    }
  }
}
node {
  name: "loss2/loss"
  type: "SoftmaxWithLoss"
  bottom: "loss2/fc2"
  bottom: "label"
  top: "loss2/loss"
  loss_weight: 0.3
 }

node {
  name: "loss2/top-1"
  type: "Accuracy"
  bottom: "loss2/fc2"
  bottom: "label"
  top: "loss2/top-1"
  propagate_down: false
  accuracy_param { top_k: 1 }
}
node {
  name: "loss2/top-5"
  type: "Accuracy"
  bottom: "loss2/fc2"
  bottom: "label"
  top: "loss2/top-5"
  propagate_down: false
  accuracy_param { top_k: 5 }
}
node {
  name: "5A/p1_1x1"
  type: "Convolution"
  bottom: "4R/concat"
  top: "5A/p1_1x1"
  param {
    lr_mult: 1.0
    decay_mult: 1.0
  }
  convolution_param {
    engine: XSMM
    num_output: 320
    kernel_size: 1
    weight_filler {
      type: "XAVIER"
    }
    bias_term: false
    #bwd_relu: true
  }
}
node {
  name: "5A/p1_1x1/bn"
  type: "FusedBatchNorm"
  bottom: "5A/p1_1x1"
  top: "5A/p1_1x1/bn"
  param {
    lr_mult: 1.0
    decay_mult: 1.0
  }
  fused_bnorm_param {
    engine: XSMM
    mmf: 0.9
    eps: 0.0001
    #bwd_relu: false
    #scale_bias: true
  }
}
node {
  name: "5A/p2_1x1"
  type: "Convolution"
  bottom: "4R/concat"
  top: "5A/p2_1x1"
  param {
    lr_mult: 1.0
    decay_mult: 1.0
  }
  convolution_param {
    engine: XSMM
    num_output: 384
    kernel_size: 1
    weight_filler {
      type: "XAVIER"
    }
    bias_term: false
    #bwd_relu: true
  }
}
node {
  name: "5A/p2_1x1/bn"
  type: "FusedBatchNorm"
  bottom: "5A/p2_1x1"
  top: "5A/p2_1x1/bn"
  param {
    lr_mult: 1.0
    decay_mult: 1.0
  }
  fused_bnorm_param {
    engine: XSMM
    pad_w: 1
    mmf: 0.9
    eps: 0.0001
    #bwd_relu: false
    #scale_bias: true
  }
}
node {
  name: "5A/p2_1x3"
  type: "Convolution"
  bottom: "5A/p2_1x1/bn"
  top: "5A/p2_1x3"
  param {
    lr_mult: 1.0
    decay_mult: 1.0
  }
  convolution_param {
    engine: XSMM
    num_output: 384
    kernel_h: 1
    kernel_w: 3
    pad_w: 1
    opad_w: 1
    physical_padding: true
    weight_filler {
      type: "XAVIER"
    }
    bias_term: false
    #bwd_relu: true
  }
}
node {
  name: "5A/p2_1x3/bn"
  type: "FusedBatchNorm"
  bottom: "5A/p2_1x3"
  top: "5A/p2_1x3/bn"
  param {
    lr_mult: 1.0
    decay_mult: 1.0
  }
  fused_bnorm_param {
    engine: XSMM
    ipad_w: 1
    mmf: 0.9
    eps: 0.0001
    #bwd_relu: false
    #scale_bias: true
  }
}
node {
  name: "5A/p2_3x1"
  type: "Convolution"
  bottom: "5A/p2_1x1/bn"
  top: "5A/p2_3x1"
  param {
    lr_mult: 1.0
    decay_mult: 1.0
  }
  convolution_param {
    engine: XSMM
    num_output: 384
    kernel_h: 3
    kernel_w: 1
    pad_h: 1
    opad_h: 1
    physical_padding: true
    weight_filler {
      type: "XAVIER"
    }
    bias_term: false
    #bwd_relu: true
  }
}
node {
  name: "5A/p2_3x1/bn"
  type: "FusedBatchNorm"
  bottom: "5A/p2_3x1"
  top: "5A/p2_3x1/bn"
  param {
    lr_mult: 1.0
    decay_mult: 1.0
  }
  fused_bnorm_param {
    engine: XSMM
    ipad_h: 1
    mmf: 0.9
    eps: 0.0001
    #bwd_relu: false
    #scale_bias: true
  }
}
node {
  name: "5A/p2_concat"
  type: "Concat"
  bottom: "5A/p2_1x3/bn"
  bottom: "5A/p2_3x1/bn"
  top: "5A/p2_concat"
  concat_param {
    engine: XSMM
  }
}
node {
  name: "5A/p3_1x1"
  type: "Convolution"
  bottom: "4R/concat"
  top: "5A/p3_1x1"
  param {
    lr_mult: 1.0
    decay_mult: 1.0
  }
  convolution_param {
    engine: XSMM
    num_output: 448
    kernel_size: 1
    weight_filler {
      type: "XAVIER"
    }
    bias_term: false
    #bwd_relu: true
  }
}
node {
  name: "5A/p3_1x1/bn"
  type: "FusedBatchNorm"
  bottom: "5A/p3_1x1"
  top: "5A/p3_1x1/bn"
  param {
    lr_mult: 1.0
    decay_mult: 1.0
  }
  fused_bnorm_param {
    engine: XSMM
    pad: 1
    mmf: 0.9
    eps: 0.0001
    #bwd_relu: false
    #scale_bias: true
  }
}
node {
  name: "5A/p3_3x3"
  type: "Convolution"
  bottom: "5A/p3_1x1/bn"
  top: "5A/p3_3x3"
  param {
    lr_mult: 1.0
    decay_mult: 1.0
  }
  convolution_param {
    engine: XSMM
    num_output: 384
    kernel_size: 3
    pad: 1
    opad: 1
    physical_padding: true
    weight_filler {
      type: "XAVIER"
    }
    bias_term: false
    #bwd_relu: true
  }
}
node {
  name: "5A/p3_3x3/bn"
  type: "FusedBatchNorm"
  bottom: "5A/p3_3x3"
  top: "5A/p3_3x3/bn"
  param {
    lr_mult: 1.0
    decay_mult: 1.0
  }
  fused_bnorm_param {
    engine: XSMM
    ipad: 1
    pad_w: 1
    mmf: 0.9
    eps: 0.0001
    #bwd_relu: false
    #scale_bias: true
  }
}
node {
  name: "5A/p3_1x3"
  type: "Convolution"
  bottom: "5A/p3_3x3/bn"
  top: "5A/p3_1x3"
  param {
    lr_mult: 1.0
    decay_mult: 1.0
  }
  convolution_param {
    engine: XSMM
    num_output: 384
    kernel_h: 1
    kernel_w: 3
    pad_w: 1
    opad_w: 1
    physical_padding: true
    weight_filler {
      type: "XAVIER"
    }
    bias_term: false
    #bwd_relu: true
  }
}
node {
  name: "5A/p3_1x3/bn"
  type: "FusedBatchNorm"
  bottom: "5A/p3_1x3"
  top: "5A/p3_1x3/bn"
  param {
    lr_mult: 1.0
    decay_mult: 1.0
  }
  fused_bnorm_param {
    engine: XSMM
    ipad_w: 1
    mmf: 0.9
    eps: 0.0001
    #bwd_relu: false
    #scale_bias: true
  }
}
node {
  name: "5A/p3_3x1"
  type: "Convolution"
  bottom: "5A/p3_3x3/bn"
  top: "5A/p3_3x1"
  param {
    lr_mult: 1.0
    decay_mult: 1.0
  }
  convolution_param {
    engine: XSMM
    num_output: 384
    kernel_h: 3
    kernel_w: 1
    pad_h: 1
    opad_h: 1
    physical_padding: true
    weight_filler {
      type: "XAVIER"
    }
    bias_term: false
    #bwd_relu: true
  }
}
node {
  name: "5A/p3_3x1/bn"
  type: "FusedBatchNorm"
  bottom: "5A/p3_3x1"
  top: "5A/p3_3x1/bn"
  param {
    lr_mult: 1.0
    decay_mult: 1.0
  }
  fused_bnorm_param {
    engine: XSMM
    ipad_h: 1
    mmf: 0.9
    eps: 0.0001
    #bwd_relu: false
    #scale_bias: true
  }
}
node {
  name: "5A/p3_concat"
  type: "Concat"
  bottom: "5A/p3_1x3/bn"
  bottom: "5A/p3_3x1/bn"
  top: "5A/p3_concat"
  concat_param {
    engine: XSMM
  }
}
node {
  name: "5A/p4_pool"
  type: "Pooling"
  bottom: "4R/concat"
  top: "5A/p4_pool"
  pooling_param {
    engine: XSMM
    pool: AVE
    kernel_size: 3
    pad: 1
  }
}
node {
  name: "5A/p4_1x1"
  type: "Convolution"
  bottom: "5A/p4_pool"
  top: "5A/p4_1x1"
  param {
    lr_mult: 1.0
    decay_mult: 1.0
  }
  convolution_param {
    engine: XSMM
    num_output: 192
    kernel_size: 1
    weight_filler {
      type: "XAVIER"
    }
    bias_term: false
    #bwd_relu: true
  }
}
node {
  name: "5A/p4_1x1/bn"
  type: "FusedBatchNorm"
  bottom: "5A/p4_1x1"
  top: "5A/p4_1x1/bn"
  param {
    lr_mult: 1.0
    decay_mult: 1.0
  }
  fused_bnorm_param {
    engine: XSMM
    mmf: 0.9
    eps: 0.0001
    #bwd_relu: false
    #scale_bias: true
  }
}
node {
  name: "5A/concat"
  type: "Concat"
  bottom: "5A/p1_1x1/bn"
  bottom: "5A/p2_concat"
  bottom: "5A/p3_concat"
  bottom: "5A/p4_1x1/bn"
  top: "5A/concat"
  concat_param {
    engine: XSMM
  }
}
node {
  name: "5B/p1_1x1"
  type: "Convolution"
  bottom: "5A/concat"
  top: "5B/p1_1x1"
  param {
    lr_mult: 1.0
    decay_mult: 1.0
  }
  convolution_param {
    engine: XSMM
    num_output: 320
    kernel_size: 1
    weight_filler {
      type: "XAVIER"
    }
    bias_term: false
    #bwd_relu: true
  }
}
node {
  name: "5B/p1_1x1/bn"
  type: "FusedBatchNorm"
  bottom: "5B/p1_1x1"
  top: "5B/p1_1x1/bn"
  param {
    lr_mult: 1.0
    decay_mult: 1.0
  }
  fused_bnorm_param {
    engine: XSMM
    mmf: 0.9
    eps: 0.0001
    #bwd_relu: false
    #scale_bias: true
  }
}
node {
  name: "5B/p2_1x1"
  type: "Convolution"
  bottom: "5A/concat"
  top: "5B/p2_1x1"
  param {
    lr_mult: 1.0
    decay_mult: 1.0
  }
  convolution_param {
    engine: XSMM
    num_output: 384
    kernel_size: 1
    weight_filler {
      type: "XAVIER"
    }
    bias_term: false
    #bwd_relu: true
  }
}
node {
  name: "5B/p2_1x1/bn"
  type: "FusedBatchNorm"
  bottom: "5B/p2_1x1"
  top: "5B/p2_1x1/bn"
  param {
    lr_mult: 1.0
    decay_mult: 1.0
  }
  fused_bnorm_param {
    engine: XSMM
    pad_w: 1
    mmf: 0.9
    eps: 0.0001
    #bwd_relu: false
    #scale_bias: true
  }
}
node {
  name: "5B/p2_1x3"
  type: "Convolution"
  bottom: "5B/p2_1x1/bn"
  top: "5B/p2_1x3"
  param {
    lr_mult: 1.0
    decay_mult: 1.0
  }
  convolution_param {
    engine: XSMM
    num_output: 384
    kernel_h: 1
    kernel_w: 3
    pad_w: 1
    opad_w: 1
    physical_padding: true
    weight_filler {
      type: "XAVIER"
    }
    bias_term: false
    #bwd_relu: true
  }
}
node {
  name: "5B/p2_1x3/bn"
  type: "FusedBatchNorm"
  bottom: "5B/p2_1x3"
  top: "5B/p2_1x3/bn"
  param {
    lr_mult: 1.0
    decay_mult: 1.0
  }
  fused_bnorm_param {
    engine: XSMM
    ipad_w: 1
    mmf: 0.9
    eps: 0.0001
    #bwd_relu: false
    #scale_bias: true
  }
}
node {
  name: "5B/p2_3x1"
  type: "Convolution"
  bottom: "5B/p2_1x1/bn"
  top: "5B/p2_3x1"
  param {
    lr_mult: 1.0
    decay_mult: 1.0
  }
  convolution_param {
    engine: XSMM
    num_output: 384
    kernel_h: 3
    kernel_w: 1
    pad_h: 1
    opad_h: 1
    physical_padding: true
    weight_filler {
      type: "XAVIER"
    }
    bias_term: false
    #bwd_relu: true
  }
}
node {
  name: "5B/p2_3x1/bn"
  type: "FusedBatchNorm"
  bottom: "5B/p2_3x1"
  top: "5B/p2_3x1/bn"
  param {
    lr_mult: 1.0
    decay_mult: 1.0
  }
  fused_bnorm_param {
    engine: XSMM
    ipad_h: 1
    mmf: 0.9
    eps: 0.0001
    #bwd_relu: false
    #scale_bias: true
  }
}
node {
  name: "5B/p2_concat"
  type: "Concat"
  bottom: "5B/p2_1x3/bn"
  bottom: "5B/p2_3x1/bn"
  top: "5B/p2_concat"
  concat_param {
    engine: XSMM
  }
}
node {
  name: "5B/p3_1x1"
  type: "Convolution"
  bottom: "5A/concat"
  top: "5B/p3_1x1"
  param {
    lr_mult: 1.0
    decay_mult: 1.0
  }
  convolution_param {
    engine: XSMM
    num_output: 448
    kernel_size: 1
    weight_filler {
      type: "XAVIER"
    }
    bias_term: false
    #bwd_relu: true
  }
}
node {
  name: "5B/p3_1x1/bn"
  type: "FusedBatchNorm"
  bottom: "5B/p3_1x1"
  top: "5B/p3_1x1/bn"
  param {
    lr_mult: 1.0
    decay_mult: 1.0
  }
  fused_bnorm_param {
    engine: XSMM
    pad: 1
    mmf: 0.9
    eps: 0.0001
    #bwd_relu: false
    #scale_bias: true
  }
}
node {
  name: "5B/p3_3x3"
  type: "Convolution"
  bottom: "5B/p3_1x1/bn"
  top: "5B/p3_3x3"
  param {
    lr_mult: 1.0
    decay_mult: 1.0
  }
  convolution_param {
    engine: XSMM
    num_output: 384
    kernel_size: 3
    pad: 1
    opad: 1
    physical_padding: true
    weight_filler {
      type: "XAVIER"
    }
    bias_term: false
    #bwd_relu: true
  }
}
node {
  name: "5B/p3_3x3/bn"
  type: "FusedBatchNorm"
  bottom: "5B/p3_3x3"
  top: "5B/p3_3x3/bn"
  param {
    lr_mult: 1.0
    decay_mult: 1.0
  }
  fused_bnorm_param {
    engine: XSMM
    ipad: 1
    pad_w: 1
    mmf: 0.9
    eps: 0.0001
    #bwd_relu: false
    #scale_bias: true
  }
}
node {
  name: "5B/p3_1x3"
  type: "Convolution"
  bottom: "5B/p3_3x3/bn"
  top: "5B/p3_1x3"
  param {
    lr_mult: 1.0
    decay_mult: 1.0
  }
  convolution_param {
    engine: XSMM
    num_output: 384
    kernel_h: 1
    kernel_w: 3
    pad_w: 1
    opad_w: 1
    physical_padding: true
    weight_filler {
      type: "XAVIER"
    }
    bias_term: false
    #bwd_relu: true
  }
}
node {
  name: "5B/p3_1x3/bn"
  type: "FusedBatchNorm"
  bottom: "5B/p3_1x3"
  top: "5B/p3_1x3/bn"
  param {
    lr_mult: 1.0
    decay_mult: 1.0
  }
  fused_bnorm_param {
    engine: XSMM
    ipad_w: 1
    mmf: 0.9
    eps: 0.0001
    #bwd_relu: false
    #scale_bias: true
  }
}
node {
  name: "5B/p3_3x1"
  type: "Convolution"
  bottom: "5B/p3_3x3/bn"
  top: "5B/p3_3x1"
  param {
    lr_mult: 1.0
    decay_mult: 1.0
  }
  convolution_param {
    engine: XSMM
    num_output: 384
    kernel_h: 3
    kernel_w: 1
    pad_h: 1
    opad_h: 1
    physical_padding: true
    weight_filler {
      type: "XAVIER"
    }
    bias_term: false
    #bwd_relu: true
  }
}
node {
  name: "5B/p3_3x1/bn"
  type: "FusedBatchNorm"
  bottom: "5B/p3_3x1"
  top: "5B/p3_3x1/bn"
  param {
    lr_mult: 1.0
    decay_mult: 1.0
  }
  fused_bnorm_param {
    engine: XSMM
    ipad_h: 1
    mmf: 0.9
    eps: 0.0001
    #bwd_relu: false
    #scale_bias: true
  }
}
node {
  name: "5B/p3_concat"
  type: "Concat"
  bottom: "5B/p3_1x3/bn"
  bottom: "5B/p3_3x1/bn"
  top: "5B/p3_concat"
  concat_param {
    engine: XSMM
  }
}
node {
  name: "5B/p4_pool"
  type: "Pooling"
  bottom: "5A/concat"
  top: "5B/p4_pool"
  pooling_param {
    engine: XSMM
    pool: AVE
    kernel_size: 3
    pad: 1
  }
}
node {
  name: "5B/p4_1x1"
  type: "Convolution"
  bottom: "5B/p4_pool"
  top: "5B/p4_1x1"
  param {
    lr_mult: 1.0
    decay_mult: 1.0
  }
  convolution_param {
    engine: XSMM
    num_output: 192
    kernel_size: 1
    weight_filler {
      type: "XAVIER"
    }
    bias_term: false
    #bwd_relu: true
  }
}
node {
  name: "5B/p4_1x1/bn"
  type: "FusedBatchNorm"
  bottom: "5B/p4_1x1"
  top: "5B/p4_1x1/bn"
  param {
    lr_mult: 1.0
    decay_mult: 1.0
  }
  fused_bnorm_param {
    engine: XSMM
    mmf: 0.9
    eps: 0.0001
    #bwd_relu: false
    #scale_bias: true
  }
}
node {
  name: "5B/concat"
  type: "Concat"
  bottom: "5B/p1_1x1/bn"
  bottom: "5B/p2_concat"
  bottom: "5B/p3_concat"
  bottom: "5B/p4_1x1/bn"
  top: "5B/concat"
  concat_param {
    engine: XSMM
  }
}
node {
  name: "loss/pool"
  type: "Pooling"
  bottom: "5B/concat"
  top: "loss/pool"
  pooling_param {
    engine: XSMM
    pool: AVE
    kernel_size: 7
  }
}
node {
  name: "loss/fc"
  type: "FullyConnected"
  bottom: "loss/pool"
  top: "loss/fc"
  param {
    lr_mult: 1.0
    decay_mult: 1.0
  }
  fc_param {
    engine: XSMM
    num_output: 1000
    weight_filler {
      type: "XAVIER"
    }
    bias_filler {
      type: "constant"
      value: 0
    }
  }
}
node {
  name: "loss"
  type: "SoftmaxWithLoss"
  bottom: "loss/fc"
  bottom: "label"
  top: "loss"
  loss_weight: 1
 }

node {
  name: "accuracy/top-1"
  type: "Accuracy"
  bottom: "loss/fc"
  bottom: "label"
  top: "accuracy/top-1"
  propagate_down: false
  accuracy_param { top_k: 1 }
}
node {
  name: "accuracy/top-5"
  type: "Accuracy"
  bottom: "loss/fc"
  bottom: "label"
  top: "accuracy/top-5"
  propagate_down: false
  accuracy_param { top_k: 5 }
}
