#############################################################################
# Copyright (c) 2017-2018, Intel Corporation                                #
# All rights reserved.                                                      #
#                                                                           #
# Redistribution and use in source and binary forms, with or without        #
# modification, are permitted provided that the following conditions        #
# are met:                                                                  #
# 1. Redistributions of source code must retain the above copyright         #
#    notice, this list of conditions and the following disclaimer.          #
# 2. Redistributions in binary form must reproduce the above copyright      #
#    notice, this list of conditions and the following disclaimer in the    #
#    documentation and/or other materials provided with the distribution.   #
# 3. Neither the name of the copyright holder nor the names of its          #
#    contributors may be used to endorse or promote products derived        #
#    from this software without specific prior written permission.          #
#                                                                           #
# THIS SOFTWARE IS PROVIDED BY THE COPYRIGHT HOLDERS AND CONTRIBUTORS       #
# "AS IS" AND ANY EXPRESS OR IMPLIED WARRANTIES, INCLUDING, BUT NOT         #
# LIMITED TO, THE IMPLIED WARRANTIES OF MERCHANTABILITY AND FITNESS FOR     #
# A PARTICULAR PURPOSE ARE DISCLAIMED. IN NO EVENT SHALL THE COPYRIGHT      #
# HOLDER OR CONTRIBUTORS BE LIABLE FOR ANY DIRECT, INDIRECT, INCIDENTAL,    #
# SPECIAL, EXEMPLARY, OR CONSEQUENTIAL DAMAGES (INCLUDING, BUT NOT LIMITED  #
# TO, PROCUREMENT OF SUBSTITUTE GOODS OR SERVICES; LOSS OF USE, DATA, OR    #
# PROFITS; OR BUSINESS INTERRUPTION) HOWEVER CAUSED AND ON ANY THEORY OF    #
# LIABILITY, WHETHER IN CONTRACT, STRICT LIABILITY, OR TORT (INCLUDING      #
# NEGLIGENCE OR OTHERWISE) ARISING IN ANY WAY OUT OF THE USE OF THIS        #
# SOFTWARE, EVEN IF ADVISED OF THE POSSIBILITY OF SUCH DAMAGE.              #
#############################################################################
# Sasikanth Avancha, Dhiraj Kalamkar, Alexander Heinecke (Intel Corp.)
#############################################################################

name: "ConvNet"
node {
  name: "data"
  type: "LMDBData"
  top: "data"
  top: "label"
  propagate_down: false
  mode: TRAIN
  data_param {
    train_source: "/lfs/est03_s/imagenet-db/CAFFE_2012/lmdb/db_8/ilsvrc12_train_lmdb_0"
    test_source: "/lfs/est03_s/imagenet-db/CAFFE_2012/lmdb/db_8/ilsvrc12_val_lmdb_0"
    split_db: true
    batch_size: 32
    num_train_files: 1281167
    num_test_files: 50000
    lookahead: 1

  # mean pixel / channel-wise mean instead of mean image
    image_xform_param {
      orig_size: 256
      crop_image: true
      crop_size: 227
      #mean_values: 118.380948
      mean_values: 104
      mean_values: 117
      mean_values: 123
      scale_values: 0.01615589
      mirror: true
    }  
  }
}
node {
  name: "conv1"
  type: "Convolution"
  bottom: "data"
  top: "conv1"
  propagate_down: false
  param {
    lr_mult: 1
    decay_mult: 1
  }
  param {
    lr_mult: 1
    decay_mult: 0
  }
  convolution_param {
    engine: MKL
    num_output: 64
    kernel_size: 11
    stride: 4
    weight_filler {
        type: "XAVIER"
    }
    bias_filler {
        type: "constant"
	value: 0.1
    }
  }
}
node {
  name: "loss1"
  type: "SoftmaxWithLoss"
  bottom: "conv1"
  bottom: "label"
  top: "loss1"
  loss_weight: 1
}
node {
  name: "conv2"
  type: "Convolution"
  bottom: "conv1"
  top: "conv2"
  param {
    lr_mult: 1
    decay_mult: 1
  }
  param {
    lr_mult: 1
    decay_mult: 0
  }
  convolution_param {
    engine: MKL
    num_output: 64
    kernel_size: 11
    stride: 4
    weight_filler {
        type: "XAVIER"
    }
    bias_filler {
        type: "constant"
	value: 0.1
    }
  }
}
node {
  name: "loss2"
  type: "SoftmaxWithLoss"
  bottom: "conv2"
  bottom: "label"
  top: "loss2"
  loss_weight: 1
}
